RCAN(
  (sub_mean): MeanShift(3, 3, kernel_size=(1, 1), stride=(1, 1))
  (add_mean): MeanShift(3, 3, kernel_size=(1, 1), stride=(1, 1))
  (head): Sequential(
    (0): Conv2d(3, 64, kernel_size=(3, 3), stride=(1, 1), padding=(1, 1))
  )
  (body): Sequential(
    (0): ResidualGroup(
      (body): Sequential(
        (0): RCAB(
          (body): Sequential(
            (0): Conv2d(64, 64, kernel_size=(3, 3), stride=(1, 1), padding=(1, 1))
            (1): ReLU(inplace)
            (2): Conv2d(64, 64, kernel_size=(3, 3), stride=(1, 1), padding=(1, 1))
            (3): CALayer(
              (avg_pool): AdaptiveAvgPool2d(output_size=1)
              (conv_du): Sequential(
                (0): Conv2d(64, 4, kernel_size=(1, 1), stride=(1, 1))
                (1): ReLU(inplace)
                (2): Conv2d(4, 64, kernel_size=(1, 1), stride=(1, 1))
                (3): Sigmoid()
              )
            )
          )
        )
        (1): RCAB(
          (body): Sequential(
            (0): Conv2d(64, 64, kernel_size=(3, 3), stride=(1, 1), padding=(1, 1))
            (1): ReLU(inplace)
            (2): Conv2d(64, 64, kernel_size=(3, 3), stride=(1, 1), padding=(1, 1))
            (3): CALayer(
              (avg_pool): AdaptiveAvgPool2d(output_size=1)
              (conv_du): Sequential(
                (0): Conv2d(64, 4, kernel_size=(1, 1), stride=(1, 1))
                (1): ReLU(inplace)
                (2): Conv2d(4, 64, kernel_size=(1, 1), stride=(1, 1))
                (3): Sigmoid()
              )
            )
          )
        )
        (2): RCAB(
          (body): Sequential(
            (0): Conv2d(64, 64, kernel_size=(3, 3), stride=(1, 1), padding=(1, 1))
            (1): ReLU(inplace)
            (2): Conv2d(64, 64, kernel_size=(3, 3), stride=(1, 1), padding=(1, 1))
            (3): CALayer(
              (avg_pool): AdaptiveAvgPool2d(output_size=1)
              (conv_du): Sequential(
                (0): Conv2d(64, 4, kernel_size=(1, 1), stride=(1, 1))
                (1): ReLU(inplace)
                (2): Conv2d(4, 64, kernel_size=(1, 1), stride=(1, 1))
                (3): Sigmoid()
              )
            )
          )
        )
        (3): RCAB(
          (body): Sequential(
            (0): Conv2d(64, 64, kernel_size=(3, 3), stride=(1, 1), padding=(1, 1))
            (1): ReLU(inplace)
            (2): Conv2d(64, 64, kernel_size=(3, 3), stride=(1, 1), padding=(1, 1))
            (3): CALayer(
              (avg_pool): AdaptiveAvgPool2d(output_size=1)
              (conv_du): Sequential(
                (0): Conv2d(64, 4, kernel_size=(1, 1), stride=(1, 1))
                (1): ReLU(inplace)
                (2): Conv2d(4, 64, kernel_size=(1, 1), stride=(1, 1))
                (3): Sigmoid()
              )
            )
          )
        )
        (4): RCAB(
          (body): Sequential(
            (0): Conv2d(64, 64, kernel_size=(3, 3), stride=(1, 1), padding=(1, 1))
            (1): ReLU(inplace)
            (2): Conv2d(64, 64, kernel_size=(3, 3), stride=(1, 1), padding=(1, 1))
            (3): CALayer(
              (avg_pool): AdaptiveAvgPool2d(output_size=1)
              (conv_du): Sequential(
                (0): Conv2d(64, 4, kernel_size=(1, 1), stride=(1, 1))
                (1): ReLU(inplace)
                (2): Conv2d(4, 64, kernel_size=(1, 1), stride=(1, 1))
                (3): Sigmoid()
              )
            )
          )
        )
        (5): RCAB(
          (body): Sequential(
            (0): Conv2d(64, 64, kernel_size=(3, 3), stride=(1, 1), padding=(1, 1))
            (1): ReLU(inplace)
            (2): Conv2d(64, 64, kernel_size=(3, 3), stride=(1, 1), padding=(1, 1))
            (3): CALayer(
              (avg_pool): AdaptiveAvgPool2d(output_size=1)
              (conv_du): Sequential(
                (0): Conv2d(64, 4, kernel_size=(1, 1), stride=(1, 1))
                (1): ReLU(inplace)
                (2): Conv2d(4, 64, kernel_size=(1, 1), stride=(1, 1))
                (3): Sigmoid()
              )
            )
          )
        )
        (6): RCAB(
          (body): Sequential(
            (0): Conv2d(64, 64, kernel_size=(3, 3), stride=(1, 1), padding=(1, 1))
            (1): ReLU(inplace)
            (2): Conv2d(64, 64, kernel_size=(3, 3), stride=(1, 1), padding=(1, 1))
            (3): CALayer(
              (avg_pool): AdaptiveAvgPool2d(output_size=1)
              (conv_du): Sequential(
                (0): Conv2d(64, 4, kernel_size=(1, 1), stride=(1, 1))
                (1): ReLU(inplace)
                (2): Conv2d(4, 64, kernel_size=(1, 1), stride=(1, 1))
                (3): Sigmoid()
              )
            )
          )
        )
        (7): RCAB(
          (body): Sequential(
            (0): Conv2d(64, 64, kernel_size=(3, 3), stride=(1, 1), padding=(1, 1))
            (1): ReLU(inplace)
            (2): Conv2d(64, 64, kernel_size=(3, 3), stride=(1, 1), padding=(1, 1))
            (3): CALayer(
              (avg_pool): AdaptiveAvgPool2d(output_size=1)
              (conv_du): Sequential(
                (0): Conv2d(64, 4, kernel_size=(1, 1), stride=(1, 1))
                (1): ReLU(inplace)
                (2): Conv2d(4, 64, kernel_size=(1, 1), stride=(1, 1))
                (3): Sigmoid()
              )
            )
          )
        )
        (8): RCAB(
          (body): Sequential(
            (0): Conv2d(64, 64, kernel_size=(3, 3), stride=(1, 1), padding=(1, 1))
            (1): ReLU(inplace)
            (2): Conv2d(64, 64, kernel_size=(3, 3), stride=(1, 1), padding=(1, 1))
            (3): CALayer(
              (avg_pool): AdaptiveAvgPool2d(output_size=1)
              (conv_du): Sequential(
                (0): Conv2d(64, 4, kernel_size=(1, 1), stride=(1, 1))
                (1): ReLU(inplace)
                (2): Conv2d(4, 64, kernel_size=(1, 1), stride=(1, 1))
                (3): Sigmoid()
              )
            )
          )
        )
        (9): RCAB(
          (body): Sequential(
            (0): Conv2d(64, 64, kernel_size=(3, 3), stride=(1, 1), padding=(1, 1))
            (1): ReLU(inplace)
            (2): Conv2d(64, 64, kernel_size=(3, 3), stride=(1, 1), padding=(1, 1))
            (3): CALayer(
              (avg_pool): AdaptiveAvgPool2d(output_size=1)
              (conv_du): Sequential(
                (0): Conv2d(64, 4, kernel_size=(1, 1), stride=(1, 1))
                (1): ReLU(inplace)
                (2): Conv2d(4, 64, kernel_size=(1, 1), stride=(1, 1))
                (3): Sigmoid()
              )
            )
          )
        )
        (10): RCAB(
          (body): Sequential(
            (0): Conv2d(64, 64, kernel_size=(3, 3), stride=(1, 1), padding=(1, 1))
            (1): ReLU(inplace)
            (2): Conv2d(64, 64, kernel_size=(3, 3), stride=(1, 1), padding=(1, 1))
            (3): CALayer(
              (avg_pool): AdaptiveAvgPool2d(output_size=1)
              (conv_du): Sequential(
                (0): Conv2d(64, 4, kernel_size=(1, 1), stride=(1, 1))
                (1): ReLU(inplace)
                (2): Conv2d(4, 64, kernel_size=(1, 1), stride=(1, 1))
                (3): Sigmoid()
              )
            )
          )
        )
        (11): RCAB(
          (body): Sequential(
            (0): Conv2d(64, 64, kernel_size=(3, 3), stride=(1, 1), padding=(1, 1))
            (1): ReLU(inplace)
            (2): Conv2d(64, 64, kernel_size=(3, 3), stride=(1, 1), padding=(1, 1))
            (3): CALayer(
              (avg_pool): AdaptiveAvgPool2d(output_size=1)
              (conv_du): Sequential(
                (0): Conv2d(64, 4, kernel_size=(1, 1), stride=(1, 1))
                (1): ReLU(inplace)
                (2): Conv2d(4, 64, kernel_size=(1, 1), stride=(1, 1))
                (3): Sigmoid()
              )
            )
          )
        )
        (12): RCAB(
          (body): Sequential(
            (0): Conv2d(64, 64, kernel_size=(3, 3), stride=(1, 1), padding=(1, 1))
            (1): ReLU(inplace)
            (2): Conv2d(64, 64, kernel_size=(3, 3), stride=(1, 1), padding=(1, 1))
            (3): CALayer(
              (avg_pool): AdaptiveAvgPool2d(output_size=1)
              (conv_du): Sequential(
                (0): Conv2d(64, 4, kernel_size=(1, 1), stride=(1, 1))
                (1): ReLU(inplace)
                (2): Conv2d(4, 64, kernel_size=(1, 1), stride=(1, 1))
                (3): Sigmoid()
              )
            )
          )
        )
        (13): RCAB(
          (body): Sequential(
            (0): Conv2d(64, 64, kernel_size=(3, 3), stride=(1, 1), padding=(1, 1))
            (1): ReLU(inplace)
            (2): Conv2d(64, 64, kernel_size=(3, 3), stride=(1, 1), padding=(1, 1))
            (3): CALayer(
              (avg_pool): AdaptiveAvgPool2d(output_size=1)
              (conv_du): Sequential(
                (0): Conv2d(64, 4, kernel_size=(1, 1), stride=(1, 1))
                (1): ReLU(inplace)
                (2): Conv2d(4, 64, kernel_size=(1, 1), stride=(1, 1))
                (3): Sigmoid()
              )
            )
          )
        )
        (14): RCAB(
          (body): Sequential(
            (0): Conv2d(64, 64, kernel_size=(3, 3), stride=(1, 1), padding=(1, 1))
            (1): ReLU(inplace)
            (2): Conv2d(64, 64, kernel_size=(3, 3), stride=(1, 1), padding=(1, 1))
            (3): CALayer(
              (avg_pool): AdaptiveAvgPool2d(output_size=1)
              (conv_du): Sequential(
                (0): Conv2d(64, 4, kernel_size=(1, 1), stride=(1, 1))
                (1): ReLU(inplace)
                (2): Conv2d(4, 64, kernel_size=(1, 1), stride=(1, 1))
                (3): Sigmoid()
              )
            )
          )
        )
        (15): RCAB(
          (body): Sequential(
            (0): Conv2d(64, 64, kernel_size=(3, 3), stride=(1, 1), padding=(1, 1))
            (1): ReLU(inplace)
            (2): Conv2d(64, 64, kernel_size=(3, 3), stride=(1, 1), padding=(1, 1))
            (3): CALayer(
              (avg_pool): AdaptiveAvgPool2d(output_size=1)
              (conv_du): Sequential(
                (0): Conv2d(64, 4, kernel_size=(1, 1), stride=(1, 1))
                (1): ReLU(inplace)
                (2): Conv2d(4, 64, kernel_size=(1, 1), stride=(1, 1))
                (3): Sigmoid()
              )
            )
          )
        )
        (16): Conv2d(64, 64, kernel_size=(3, 3), stride=(1, 1), padding=(1, 1))
      )
    )
    (1): ResidualGroup(
      (body): Sequential(
        (0): RCAB(
          (body): Sequential(
            (0): Conv2d(64, 64, kernel_size=(3, 3), stride=(1, 1), padding=(1, 1))
            (1): ReLU(inplace)
            (2): Conv2d(64, 64, kernel_size=(3, 3), stride=(1, 1), padding=(1, 1))
            (3): CALayer(
              (avg_pool): AdaptiveAvgPool2d(output_size=1)
              (conv_du): Sequential(
                (0): Conv2d(64, 4, kernel_size=(1, 1), stride=(1, 1))
                (1): ReLU(inplace)
                (2): Conv2d(4, 64, kernel_size=(1, 1), stride=(1, 1))
                (3): Sigmoid()
              )
            )
          )
        )
        (1): RCAB(
          (body): Sequential(
            (0): Conv2d(64, 64, kernel_size=(3, 3), stride=(1, 1), padding=(1, 1))
            (1): ReLU(inplace)
            (2): Conv2d(64, 64, kernel_size=(3, 3), stride=(1, 1), padding=(1, 1))
            (3): CALayer(
              (avg_pool): AdaptiveAvgPool2d(output_size=1)
              (conv_du): Sequential(
                (0): Conv2d(64, 4, kernel_size=(1, 1), stride=(1, 1))
                (1): ReLU(inplace)
                (2): Conv2d(4, 64, kernel_size=(1, 1), stride=(1, 1))
                (3): Sigmoid()
              )
            )
          )
        )
        (2): RCAB(
          (body): Sequential(
            (0): Conv2d(64, 64, kernel_size=(3, 3), stride=(1, 1), padding=(1, 1))
            (1): ReLU(inplace)
            (2): Conv2d(64, 64, kernel_size=(3, 3), stride=(1, 1), padding=(1, 1))
            (3): CALayer(
              (avg_pool): AdaptiveAvgPool2d(output_size=1)
              (conv_du): Sequential(
                (0): Conv2d(64, 4, kernel_size=(1, 1), stride=(1, 1))
                (1): ReLU(inplace)
                (2): Conv2d(4, 64, kernel_size=(1, 1), stride=(1, 1))
                (3): Sigmoid()
              )
            )
          )
        )
        (3): RCAB(
          (body): Sequential(
            (0): Conv2d(64, 64, kernel_size=(3, 3), stride=(1, 1), padding=(1, 1))
            (1): ReLU(inplace)
            (2): Conv2d(64, 64, kernel_size=(3, 3), stride=(1, 1), padding=(1, 1))
            (3): CALayer(
              (avg_pool): AdaptiveAvgPool2d(output_size=1)
              (conv_du): Sequential(
                (0): Conv2d(64, 4, kernel_size=(1, 1), stride=(1, 1))
                (1): ReLU(inplace)
                (2): Conv2d(4, 64, kernel_size=(1, 1), stride=(1, 1))
                (3): Sigmoid()
              )
            )
          )
        )
        (4): RCAB(
          (body): Sequential(
            (0): Conv2d(64, 64, kernel_size=(3, 3), stride=(1, 1), padding=(1, 1))
            (1): ReLU(inplace)
            (2): Conv2d(64, 64, kernel_size=(3, 3), stride=(1, 1), padding=(1, 1))
            (3): CALayer(
              (avg_pool): AdaptiveAvgPool2d(output_size=1)
              (conv_du): Sequential(
                (0): Conv2d(64, 4, kernel_size=(1, 1), stride=(1, 1))
                (1): ReLU(inplace)
                (2): Conv2d(4, 64, kernel_size=(1, 1), stride=(1, 1))
                (3): Sigmoid()
              )
            )
          )
        )
        (5): RCAB(
          (body): Sequential(
            (0): Conv2d(64, 64, kernel_size=(3, 3), stride=(1, 1), padding=(1, 1))
            (1): ReLU(inplace)
            (2): Conv2d(64, 64, kernel_size=(3, 3), stride=(1, 1), padding=(1, 1))
            (3): CALayer(
              (avg_pool): AdaptiveAvgPool2d(output_size=1)
              (conv_du): Sequential(
                (0): Conv2d(64, 4, kernel_size=(1, 1), stride=(1, 1))
                (1): ReLU(inplace)
                (2): Conv2d(4, 64, kernel_size=(1, 1), stride=(1, 1))
                (3): Sigmoid()
              )
            )
          )
        )
        (6): RCAB(
          (body): Sequential(
            (0): Conv2d(64, 64, kernel_size=(3, 3), stride=(1, 1), padding=(1, 1))
            (1): ReLU(inplace)
            (2): Conv2d(64, 64, kernel_size=(3, 3), stride=(1, 1), padding=(1, 1))
            (3): CALayer(
              (avg_pool): AdaptiveAvgPool2d(output_size=1)
              (conv_du): Sequential(
                (0): Conv2d(64, 4, kernel_size=(1, 1), stride=(1, 1))
                (1): ReLU(inplace)
                (2): Conv2d(4, 64, kernel_size=(1, 1), stride=(1, 1))
                (3): Sigmoid()
              )
            )
          )
        )
        (7): RCAB(
          (body): Sequential(
            (0): Conv2d(64, 64, kernel_size=(3, 3), stride=(1, 1), padding=(1, 1))
            (1): ReLU(inplace)
            (2): Conv2d(64, 64, kernel_size=(3, 3), stride=(1, 1), padding=(1, 1))
            (3): CALayer(
              (avg_pool): AdaptiveAvgPool2d(output_size=1)
              (conv_du): Sequential(
                (0): Conv2d(64, 4, kernel_size=(1, 1), stride=(1, 1))
                (1): ReLU(inplace)
                (2): Conv2d(4, 64, kernel_size=(1, 1), stride=(1, 1))
                (3): Sigmoid()
              )
            )
          )
        )
        (8): RCAB(
          (body): Sequential(
            (0): Conv2d(64, 64, kernel_size=(3, 3), stride=(1, 1), padding=(1, 1))
            (1): ReLU(inplace)
            (2): Conv2d(64, 64, kernel_size=(3, 3), stride=(1, 1), padding=(1, 1))
            (3): CALayer(
              (avg_pool): AdaptiveAvgPool2d(output_size=1)
              (conv_du): Sequential(
                (0): Conv2d(64, 4, kernel_size=(1, 1), stride=(1, 1))
                (1): ReLU(inplace)
                (2): Conv2d(4, 64, kernel_size=(1, 1), stride=(1, 1))
                (3): Sigmoid()
              )
            )
          )
        )
        (9): RCAB(
          (body): Sequential(
            (0): Conv2d(64, 64, kernel_size=(3, 3), stride=(1, 1), padding=(1, 1))
            (1): ReLU(inplace)
            (2): Conv2d(64, 64, kernel_size=(3, 3), stride=(1, 1), padding=(1, 1))
            (3): CALayer(
              (avg_pool): AdaptiveAvgPool2d(output_size=1)
              (conv_du): Sequential(
                (0): Conv2d(64, 4, kernel_size=(1, 1), stride=(1, 1))
                (1): ReLU(inplace)
                (2): Conv2d(4, 64, kernel_size=(1, 1), stride=(1, 1))
                (3): Sigmoid()
              )
            )
          )
        )
        (10): RCAB(
          (body): Sequential(
            (0): Conv2d(64, 64, kernel_size=(3, 3), stride=(1, 1), padding=(1, 1))
            (1): ReLU(inplace)
            (2): Conv2d(64, 64, kernel_size=(3, 3), stride=(1, 1), padding=(1, 1))
            (3): CALayer(
              (avg_pool): AdaptiveAvgPool2d(output_size=1)
              (conv_du): Sequential(
                (0): Conv2d(64, 4, kernel_size=(1, 1), stride=(1, 1))
                (1): ReLU(inplace)
                (2): Conv2d(4, 64, kernel_size=(1, 1), stride=(1, 1))
                (3): Sigmoid()
              )
            )
          )
        )
        (11): RCAB(
          (body): Sequential(
            (0): Conv2d(64, 64, kernel_size=(3, 3), stride=(1, 1), padding=(1, 1))
            (1): ReLU(inplace)
            (2): Conv2d(64, 64, kernel_size=(3, 3), stride=(1, 1), padding=(1, 1))
            (3): CALayer(
              (avg_pool): AdaptiveAvgPool2d(output_size=1)
              (conv_du): Sequential(
                (0): Conv2d(64, 4, kernel_size=(1, 1), stride=(1, 1))
                (1): ReLU(inplace)
                (2): Conv2d(4, 64, kernel_size=(1, 1), stride=(1, 1))
                (3): Sigmoid()
              )
            )
          )
        )
        (12): RCAB(
          (body): Sequential(
            (0): Conv2d(64, 64, kernel_size=(3, 3), stride=(1, 1), padding=(1, 1))
            (1): ReLU(inplace)
            (2): Conv2d(64, 64, kernel_size=(3, 3), stride=(1, 1), padding=(1, 1))
            (3): CALayer(
              (avg_pool): AdaptiveAvgPool2d(output_size=1)
              (conv_du): Sequential(
                (0): Conv2d(64, 4, kernel_size=(1, 1), stride=(1, 1))
                (1): ReLU(inplace)
                (2): Conv2d(4, 64, kernel_size=(1, 1), stride=(1, 1))
                (3): Sigmoid()
              )
            )
          )
        )
        (13): RCAB(
          (body): Sequential(
            (0): Conv2d(64, 64, kernel_size=(3, 3), stride=(1, 1), padding=(1, 1))
            (1): ReLU(inplace)
            (2): Conv2d(64, 64, kernel_size=(3, 3), stride=(1, 1), padding=(1, 1))
            (3): CALayer(
              (avg_pool): AdaptiveAvgPool2d(output_size=1)
              (conv_du): Sequential(
                (0): Conv2d(64, 4, kernel_size=(1, 1), stride=(1, 1))
                (1): ReLU(inplace)
                (2): Conv2d(4, 64, kernel_size=(1, 1), stride=(1, 1))
                (3): Sigmoid()
              )
            )
          )
        )
        (14): RCAB(
          (body): Sequential(
            (0): Conv2d(64, 64, kernel_size=(3, 3), stride=(1, 1), padding=(1, 1))
            (1): ReLU(inplace)
            (2): Conv2d(64, 64, kernel_size=(3, 3), stride=(1, 1), padding=(1, 1))
            (3): CALayer(
              (avg_pool): AdaptiveAvgPool2d(output_size=1)
              (conv_du): Sequential(
                (0): Conv2d(64, 4, kernel_size=(1, 1), stride=(1, 1))
                (1): ReLU(inplace)
                (2): Conv2d(4, 64, kernel_size=(1, 1), stride=(1, 1))
                (3): Sigmoid()
              )
            )
          )
        )
        (15): RCAB(
          (body): Sequential(
            (0): Conv2d(64, 64, kernel_size=(3, 3), stride=(1, 1), padding=(1, 1))
            (1): ReLU(inplace)
            (2): Conv2d(64, 64, kernel_size=(3, 3), stride=(1, 1), padding=(1, 1))
            (3): CALayer(
              (avg_pool): AdaptiveAvgPool2d(output_size=1)
              (conv_du): Sequential(
                (0): Conv2d(64, 4, kernel_size=(1, 1), stride=(1, 1))
                (1): ReLU(inplace)
                (2): Conv2d(4, 64, kernel_size=(1, 1), stride=(1, 1))
                (3): Sigmoid()
              )
            )
          )
        )
        (16): Conv2d(64, 64, kernel_size=(3, 3), stride=(1, 1), padding=(1, 1))
      )
    )
    (2): ResidualGroup(
      (body): Sequential(
        (0): RCAB(
          (body): Sequential(
            (0): Conv2d(64, 64, kernel_size=(3, 3), stride=(1, 1), padding=(1, 1))
            (1): ReLU(inplace)
            (2): Conv2d(64, 64, kernel_size=(3, 3), stride=(1, 1), padding=(1, 1))
            (3): CALayer(
              (avg_pool): AdaptiveAvgPool2d(output_size=1)
              (conv_du): Sequential(
                (0): Conv2d(64, 4, kernel_size=(1, 1), stride=(1, 1))
                (1): ReLU(inplace)
                (2): Conv2d(4, 64, kernel_size=(1, 1), stride=(1, 1))
                (3): Sigmoid()
              )
            )
          )
        )
        (1): RCAB(
          (body): Sequential(
            (0): Conv2d(64, 64, kernel_size=(3, 3), stride=(1, 1), padding=(1, 1))
            (1): ReLU(inplace)
            (2): Conv2d(64, 64, kernel_size=(3, 3), stride=(1, 1), padding=(1, 1))
            (3): CALayer(
              (avg_pool): AdaptiveAvgPool2d(output_size=1)
              (conv_du): Sequential(
                (0): Conv2d(64, 4, kernel_size=(1, 1), stride=(1, 1))
                (1): ReLU(inplace)
                (2): Conv2d(4, 64, kernel_size=(1, 1), stride=(1, 1))
                (3): Sigmoid()
              )
            )
          )
        )
        (2): RCAB(
          (body): Sequential(
            (0): Conv2d(64, 64, kernel_size=(3, 3), stride=(1, 1), padding=(1, 1))
            (1): ReLU(inplace)
            (2): Conv2d(64, 64, kernel_size=(3, 3), stride=(1, 1), padding=(1, 1))
            (3): CALayer(
              (avg_pool): AdaptiveAvgPool2d(output_size=1)
              (conv_du): Sequential(
                (0): Conv2d(64, 4, kernel_size=(1, 1), stride=(1, 1))
                (1): ReLU(inplace)
                (2): Conv2d(4, 64, kernel_size=(1, 1), stride=(1, 1))
                (3): Sigmoid()
              )
            )
          )
        )
        (3): RCAB(
          (body): Sequential(
            (0): Conv2d(64, 64, kernel_size=(3, 3), stride=(1, 1), padding=(1, 1))
            (1): ReLU(inplace)
            (2): Conv2d(64, 64, kernel_size=(3, 3), stride=(1, 1), padding=(1, 1))
            (3): CALayer(
              (avg_pool): AdaptiveAvgPool2d(output_size=1)
              (conv_du): Sequential(
                (0): Conv2d(64, 4, kernel_size=(1, 1), stride=(1, 1))
                (1): ReLU(inplace)
                (2): Conv2d(4, 64, kernel_size=(1, 1), stride=(1, 1))
                (3): Sigmoid()
              )
            )
          )
        )
        (4): RCAB(
          (body): Sequential(
            (0): Conv2d(64, 64, kernel_size=(3, 3), stride=(1, 1), padding=(1, 1))
            (1): ReLU(inplace)
            (2): Conv2d(64, 64, kernel_size=(3, 3), stride=(1, 1), padding=(1, 1))
            (3): CALayer(
              (avg_pool): AdaptiveAvgPool2d(output_size=1)
              (conv_du): Sequential(
                (0): Conv2d(64, 4, kernel_size=(1, 1), stride=(1, 1))
                (1): ReLU(inplace)
                (2): Conv2d(4, 64, kernel_size=(1, 1), stride=(1, 1))
                (3): Sigmoid()
              )
            )
          )
        )
        (5): RCAB(
          (body): Sequential(
            (0): Conv2d(64, 64, kernel_size=(3, 3), stride=(1, 1), padding=(1, 1))
            (1): ReLU(inplace)
            (2): Conv2d(64, 64, kernel_size=(3, 3), stride=(1, 1), padding=(1, 1))
            (3): CALayer(
              (avg_pool): AdaptiveAvgPool2d(output_size=1)
              (conv_du): Sequential(
                (0): Conv2d(64, 4, kernel_size=(1, 1), stride=(1, 1))
                (1): ReLU(inplace)
                (2): Conv2d(4, 64, kernel_size=(1, 1), stride=(1, 1))
                (3): Sigmoid()
              )
            )
          )
        )
        (6): RCAB(
          (body): Sequential(
            (0): Conv2d(64, 64, kernel_size=(3, 3), stride=(1, 1), padding=(1, 1))
            (1): ReLU(inplace)
            (2): Conv2d(64, 64, kernel_size=(3, 3), stride=(1, 1), padding=(1, 1))
            (3): CALayer(
              (avg_pool): AdaptiveAvgPool2d(output_size=1)
              (conv_du): Sequential(
                (0): Conv2d(64, 4, kernel_size=(1, 1), stride=(1, 1))
                (1): ReLU(inplace)
                (2): Conv2d(4, 64, kernel_size=(1, 1), stride=(1, 1))
                (3): Sigmoid()
              )
            )
          )
        )
        (7): RCAB(
          (body): Sequential(
            (0): Conv2d(64, 64, kernel_size=(3, 3), stride=(1, 1), padding=(1, 1))
            (1): ReLU(inplace)
            (2): Conv2d(64, 64, kernel_size=(3, 3), stride=(1, 1), padding=(1, 1))
            (3): CALayer(
              (avg_pool): AdaptiveAvgPool2d(output_size=1)
              (conv_du): Sequential(
                (0): Conv2d(64, 4, kernel_size=(1, 1), stride=(1, 1))
                (1): ReLU(inplace)
                (2): Conv2d(4, 64, kernel_size=(1, 1), stride=(1, 1))
                (3): Sigmoid()
              )
            )
          )
        )
        (8): RCAB(
          (body): Sequential(
            (0): Conv2d(64, 64, kernel_size=(3, 3), stride=(1, 1), padding=(1, 1))
            (1): ReLU(inplace)
            (2): Conv2d(64, 64, kernel_size=(3, 3), stride=(1, 1), padding=(1, 1))
            (3): CALayer(
              (avg_pool): AdaptiveAvgPool2d(output_size=1)
              (conv_du): Sequential(
                (0): Conv2d(64, 4, kernel_size=(1, 1), stride=(1, 1))
                (1): ReLU(inplace)
                (2): Conv2d(4, 64, kernel_size=(1, 1), stride=(1, 1))
                (3): Sigmoid()
              )
            )
          )
        )
        (9): RCAB(
          (body): Sequential(
            (0): Conv2d(64, 64, kernel_size=(3, 3), stride=(1, 1), padding=(1, 1))
            (1): ReLU(inplace)
            (2): Conv2d(64, 64, kernel_size=(3, 3), stride=(1, 1), padding=(1, 1))
            (3): CALayer(
              (avg_pool): AdaptiveAvgPool2d(output_size=1)
              (conv_du): Sequential(
                (0): Conv2d(64, 4, kernel_size=(1, 1), stride=(1, 1))
                (1): ReLU(inplace)
                (2): Conv2d(4, 64, kernel_size=(1, 1), stride=(1, 1))
                (3): Sigmoid()
              )
            )
          )
        )
        (10): RCAB(
          (body): Sequential(
            (0): Conv2d(64, 64, kernel_size=(3, 3), stride=(1, 1), padding=(1, 1))
            (1): ReLU(inplace)
            (2): Conv2d(64, 64, kernel_size=(3, 3), stride=(1, 1), padding=(1, 1))
            (3): CALayer(
              (avg_pool): AdaptiveAvgPool2d(output_size=1)
              (conv_du): Sequential(
                (0): Conv2d(64, 4, kernel_size=(1, 1), stride=(1, 1))
                (1): ReLU(inplace)
                (2): Conv2d(4, 64, kernel_size=(1, 1), stride=(1, 1))
                (3): Sigmoid()
              )
            )
          )
        )
        (11): RCAB(
          (body): Sequential(
            (0): Conv2d(64, 64, kernel_size=(3, 3), stride=(1, 1), padding=(1, 1))
            (1): ReLU(inplace)
            (2): Conv2d(64, 64, kernel_size=(3, 3), stride=(1, 1), padding=(1, 1))
            (3): CALayer(
              (avg_pool): AdaptiveAvgPool2d(output_size=1)
              (conv_du): Sequential(
                (0): Conv2d(64, 4, kernel_size=(1, 1), stride=(1, 1))
                (1): ReLU(inplace)
                (2): Conv2d(4, 64, kernel_size=(1, 1), stride=(1, 1))
                (3): Sigmoid()
              )
            )
          )
        )
        (12): RCAB(
          (body): Sequential(
            (0): Conv2d(64, 64, kernel_size=(3, 3), stride=(1, 1), padding=(1, 1))
            (1): ReLU(inplace)
            (2): Conv2d(64, 64, kernel_size=(3, 3), stride=(1, 1), padding=(1, 1))
            (3): CALayer(
              (avg_pool): AdaptiveAvgPool2d(output_size=1)
              (conv_du): Sequential(
                (0): Conv2d(64, 4, kernel_size=(1, 1), stride=(1, 1))
                (1): ReLU(inplace)
                (2): Conv2d(4, 64, kernel_size=(1, 1), stride=(1, 1))
                (3): Sigmoid()
              )
            )
          )
        )
        (13): RCAB(
          (body): Sequential(
            (0): Conv2d(64, 64, kernel_size=(3, 3), stride=(1, 1), padding=(1, 1))
            (1): ReLU(inplace)
            (2): Conv2d(64, 64, kernel_size=(3, 3), stride=(1, 1), padding=(1, 1))
            (3): CALayer(
              (avg_pool): AdaptiveAvgPool2d(output_size=1)
              (conv_du): Sequential(
                (0): Conv2d(64, 4, kernel_size=(1, 1), stride=(1, 1))
                (1): ReLU(inplace)
                (2): Conv2d(4, 64, kernel_size=(1, 1), stride=(1, 1))
                (3): Sigmoid()
              )
            )
          )
        )
        (14): RCAB(
          (body): Sequential(
            (0): Conv2d(64, 64, kernel_size=(3, 3), stride=(1, 1), padding=(1, 1))
            (1): ReLU(inplace)
            (2): Conv2d(64, 64, kernel_size=(3, 3), stride=(1, 1), padding=(1, 1))
            (3): CALayer(
              (avg_pool): AdaptiveAvgPool2d(output_size=1)
              (conv_du): Sequential(
                (0): Conv2d(64, 4, kernel_size=(1, 1), stride=(1, 1))
                (1): ReLU(inplace)
                (2): Conv2d(4, 64, kernel_size=(1, 1), stride=(1, 1))
                (3): Sigmoid()
              )
            )
          )
        )
        (15): RCAB(
          (body): Sequential(
            (0): Conv2d(64, 64, kernel_size=(3, 3), stride=(1, 1), padding=(1, 1))
            (1): ReLU(inplace)
            (2): Conv2d(64, 64, kernel_size=(3, 3), stride=(1, 1), padding=(1, 1))
            (3): CALayer(
              (avg_pool): AdaptiveAvgPool2d(output_size=1)
              (conv_du): Sequential(
                (0): Conv2d(64, 4, kernel_size=(1, 1), stride=(1, 1))
                (1): ReLU(inplace)
                (2): Conv2d(4, 64, kernel_size=(1, 1), stride=(1, 1))
                (3): Sigmoid()
              )
            )
          )
        )
        (16): Conv2d(64, 64, kernel_size=(3, 3), stride=(1, 1), padding=(1, 1))
      )
    )
    (3): ResidualGroup(
      (body): Sequential(
        (0): RCAB(
          (body): Sequential(
            (0): Conv2d(64, 64, kernel_size=(3, 3), stride=(1, 1), padding=(1, 1))
            (1): ReLU(inplace)
            (2): Conv2d(64, 64, kernel_size=(3, 3), stride=(1, 1), padding=(1, 1))
            (3): CALayer(
              (avg_pool): AdaptiveAvgPool2d(output_size=1)
              (conv_du): Sequential(
                (0): Conv2d(64, 4, kernel_size=(1, 1), stride=(1, 1))
                (1): ReLU(inplace)
                (2): Conv2d(4, 64, kernel_size=(1, 1), stride=(1, 1))
                (3): Sigmoid()
              )
            )
          )
        )
        (1): RCAB(
          (body): Sequential(
            (0): Conv2d(64, 64, kernel_size=(3, 3), stride=(1, 1), padding=(1, 1))
            (1): ReLU(inplace)
            (2): Conv2d(64, 64, kernel_size=(3, 3), stride=(1, 1), padding=(1, 1))
            (3): CALayer(
              (avg_pool): AdaptiveAvgPool2d(output_size=1)
              (conv_du): Sequential(
                (0): Conv2d(64, 4, kernel_size=(1, 1), stride=(1, 1))
                (1): ReLU(inplace)
                (2): Conv2d(4, 64, kernel_size=(1, 1), stride=(1, 1))
                (3): Sigmoid()
              )
            )
          )
        )
        (2): RCAB(
          (body): Sequential(
            (0): Conv2d(64, 64, kernel_size=(3, 3), stride=(1, 1), padding=(1, 1))
            (1): ReLU(inplace)
            (2): Conv2d(64, 64, kernel_size=(3, 3), stride=(1, 1), padding=(1, 1))
            (3): CALayer(
              (avg_pool): AdaptiveAvgPool2d(output_size=1)
              (conv_du): Sequential(
                (0): Conv2d(64, 4, kernel_size=(1, 1), stride=(1, 1))
                (1): ReLU(inplace)
                (2): Conv2d(4, 64, kernel_size=(1, 1), stride=(1, 1))
                (3): Sigmoid()
              )
            )
          )
        )
        (3): RCAB(
          (body): Sequential(
            (0): Conv2d(64, 64, kernel_size=(3, 3), stride=(1, 1), padding=(1, 1))
            (1): ReLU(inplace)
            (2): Conv2d(64, 64, kernel_size=(3, 3), stride=(1, 1), padding=(1, 1))
            (3): CALayer(
              (avg_pool): AdaptiveAvgPool2d(output_size=1)
              (conv_du): Sequential(
                (0): Conv2d(64, 4, kernel_size=(1, 1), stride=(1, 1))
                (1): ReLU(inplace)
                (2): Conv2d(4, 64, kernel_size=(1, 1), stride=(1, 1))
                (3): Sigmoid()
              )
            )
          )
        )
        (4): RCAB(
          (body): Sequential(
            (0): Conv2d(64, 64, kernel_size=(3, 3), stride=(1, 1), padding=(1, 1))
            (1): ReLU(inplace)
            (2): Conv2d(64, 64, kernel_size=(3, 3), stride=(1, 1), padding=(1, 1))
            (3): CALayer(
              (avg_pool): AdaptiveAvgPool2d(output_size=1)
              (conv_du): Sequential(
                (0): Conv2d(64, 4, kernel_size=(1, 1), stride=(1, 1))
                (1): ReLU(inplace)
                (2): Conv2d(4, 64, kernel_size=(1, 1), stride=(1, 1))
                (3): Sigmoid()
              )
            )
          )
        )
        (5): RCAB(
          (body): Sequential(
            (0): Conv2d(64, 64, kernel_size=(3, 3), stride=(1, 1), padding=(1, 1))
            (1): ReLU(inplace)
            (2): Conv2d(64, 64, kernel_size=(3, 3), stride=(1, 1), padding=(1, 1))
            (3): CALayer(
              (avg_pool): AdaptiveAvgPool2d(output_size=1)
              (conv_du): Sequential(
                (0): Conv2d(64, 4, kernel_size=(1, 1), stride=(1, 1))
                (1): ReLU(inplace)
                (2): Conv2d(4, 64, kernel_size=(1, 1), stride=(1, 1))
                (3): Sigmoid()
              )
            )
          )
        )
        (6): RCAB(
          (body): Sequential(
            (0): Conv2d(64, 64, kernel_size=(3, 3), stride=(1, 1), padding=(1, 1))
            (1): ReLU(inplace)
            (2): Conv2d(64, 64, kernel_size=(3, 3), stride=(1, 1), padding=(1, 1))
            (3): CALayer(
              (avg_pool): AdaptiveAvgPool2d(output_size=1)
              (conv_du): Sequential(
                (0): Conv2d(64, 4, kernel_size=(1, 1), stride=(1, 1))
                (1): ReLU(inplace)
                (2): Conv2d(4, 64, kernel_size=(1, 1), stride=(1, 1))
                (3): Sigmoid()
              )
            )
          )
        )
        (7): RCAB(
          (body): Sequential(
            (0): Conv2d(64, 64, kernel_size=(3, 3), stride=(1, 1), padding=(1, 1))
            (1): ReLU(inplace)
            (2): Conv2d(64, 64, kernel_size=(3, 3), stride=(1, 1), padding=(1, 1))
            (3): CALayer(
              (avg_pool): AdaptiveAvgPool2d(output_size=1)
              (conv_du): Sequential(
                (0): Conv2d(64, 4, kernel_size=(1, 1), stride=(1, 1))
                (1): ReLU(inplace)
                (2): Conv2d(4, 64, kernel_size=(1, 1), stride=(1, 1))
                (3): Sigmoid()
              )
            )
          )
        )
        (8): RCAB(
          (body): Sequential(
            (0): Conv2d(64, 64, kernel_size=(3, 3), stride=(1, 1), padding=(1, 1))
            (1): ReLU(inplace)
            (2): Conv2d(64, 64, kernel_size=(3, 3), stride=(1, 1), padding=(1, 1))
            (3): CALayer(
              (avg_pool): AdaptiveAvgPool2d(output_size=1)
              (conv_du): Sequential(
                (0): Conv2d(64, 4, kernel_size=(1, 1), stride=(1, 1))
                (1): ReLU(inplace)
                (2): Conv2d(4, 64, kernel_size=(1, 1), stride=(1, 1))
                (3): Sigmoid()
              )
            )
          )
        )
        (9): RCAB(
          (body): Sequential(
            (0): Conv2d(64, 64, kernel_size=(3, 3), stride=(1, 1), padding=(1, 1))
            (1): ReLU(inplace)
            (2): Conv2d(64, 64, kernel_size=(3, 3), stride=(1, 1), padding=(1, 1))
            (3): CALayer(
              (avg_pool): AdaptiveAvgPool2d(output_size=1)
              (conv_du): Sequential(
                (0): Conv2d(64, 4, kernel_size=(1, 1), stride=(1, 1))
                (1): ReLU(inplace)
                (2): Conv2d(4, 64, kernel_size=(1, 1), stride=(1, 1))
                (3): Sigmoid()
              )
            )
          )
        )
        (10): RCAB(
          (body): Sequential(
            (0): Conv2d(64, 64, kernel_size=(3, 3), stride=(1, 1), padding=(1, 1))
            (1): ReLU(inplace)
            (2): Conv2d(64, 64, kernel_size=(3, 3), stride=(1, 1), padding=(1, 1))
            (3): CALayer(
              (avg_pool): AdaptiveAvgPool2d(output_size=1)
              (conv_du): Sequential(
                (0): Conv2d(64, 4, kernel_size=(1, 1), stride=(1, 1))
                (1): ReLU(inplace)
                (2): Conv2d(4, 64, kernel_size=(1, 1), stride=(1, 1))
                (3): Sigmoid()
              )
            )
          )
        )
        (11): RCAB(
          (body): Sequential(
            (0): Conv2d(64, 64, kernel_size=(3, 3), stride=(1, 1), padding=(1, 1))
            (1): ReLU(inplace)
            (2): Conv2d(64, 64, kernel_size=(3, 3), stride=(1, 1), padding=(1, 1))
            (3): CALayer(
              (avg_pool): AdaptiveAvgPool2d(output_size=1)
              (conv_du): Sequential(
                (0): Conv2d(64, 4, kernel_size=(1, 1), stride=(1, 1))
                (1): ReLU(inplace)
                (2): Conv2d(4, 64, kernel_size=(1, 1), stride=(1, 1))
                (3): Sigmoid()
              )
            )
          )
        )
        (12): RCAB(
          (body): Sequential(
            (0): Conv2d(64, 64, kernel_size=(3, 3), stride=(1, 1), padding=(1, 1))
            (1): ReLU(inplace)
            (2): Conv2d(64, 64, kernel_size=(3, 3), stride=(1, 1), padding=(1, 1))
            (3): CALayer(
              (avg_pool): AdaptiveAvgPool2d(output_size=1)
              (conv_du): Sequential(
                (0): Conv2d(64, 4, kernel_size=(1, 1), stride=(1, 1))
                (1): ReLU(inplace)
                (2): Conv2d(4, 64, kernel_size=(1, 1), stride=(1, 1))
                (3): Sigmoid()
              )
            )
          )
        )
        (13): RCAB(
          (body): Sequential(
            (0): Conv2d(64, 64, kernel_size=(3, 3), stride=(1, 1), padding=(1, 1))
            (1): ReLU(inplace)
            (2): Conv2d(64, 64, kernel_size=(3, 3), stride=(1, 1), padding=(1, 1))
            (3): CALayer(
              (avg_pool): AdaptiveAvgPool2d(output_size=1)
              (conv_du): Sequential(
                (0): Conv2d(64, 4, kernel_size=(1, 1), stride=(1, 1))
                (1): ReLU(inplace)
                (2): Conv2d(4, 64, kernel_size=(1, 1), stride=(1, 1))
                (3): Sigmoid()
              )
            )
          )
        )
        (14): RCAB(
          (body): Sequential(
            (0): Conv2d(64, 64, kernel_size=(3, 3), stride=(1, 1), padding=(1, 1))
            (1): ReLU(inplace)
            (2): Conv2d(64, 64, kernel_size=(3, 3), stride=(1, 1), padding=(1, 1))
            (3): CALayer(
              (avg_pool): AdaptiveAvgPool2d(output_size=1)
              (conv_du): Sequential(
                (0): Conv2d(64, 4, kernel_size=(1, 1), stride=(1, 1))
                (1): ReLU(inplace)
                (2): Conv2d(4, 64, kernel_size=(1, 1), stride=(1, 1))
                (3): Sigmoid()
              )
            )
          )
        )
        (15): RCAB(
          (body): Sequential(
            (0): Conv2d(64, 64, kernel_size=(3, 3), stride=(1, 1), padding=(1, 1))
            (1): ReLU(inplace)
            (2): Conv2d(64, 64, kernel_size=(3, 3), stride=(1, 1), padding=(1, 1))
            (3): CALayer(
              (avg_pool): AdaptiveAvgPool2d(output_size=1)
              (conv_du): Sequential(
                (0): Conv2d(64, 4, kernel_size=(1, 1), stride=(1, 1))
                (1): ReLU(inplace)
                (2): Conv2d(4, 64, kernel_size=(1, 1), stride=(1, 1))
                (3): Sigmoid()
              )
            )
          )
        )
        (16): Conv2d(64, 64, kernel_size=(3, 3), stride=(1, 1), padding=(1, 1))
      )
    )
    (4): ResidualGroup(
      (body): Sequential(
        (0): RCAB(
          (body): Sequential(
            (0): Conv2d(64, 64, kernel_size=(3, 3), stride=(1, 1), padding=(1, 1))
            (1): ReLU(inplace)
            (2): Conv2d(64, 64, kernel_size=(3, 3), stride=(1, 1), padding=(1, 1))
            (3): CALayer(
              (avg_pool): AdaptiveAvgPool2d(output_size=1)
              (conv_du): Sequential(
                (0): Conv2d(64, 4, kernel_size=(1, 1), stride=(1, 1))
                (1): ReLU(inplace)
                (2): Conv2d(4, 64, kernel_size=(1, 1), stride=(1, 1))
                (3): Sigmoid()
              )
            )
          )
        )
        (1): RCAB(
          (body): Sequential(
            (0): Conv2d(64, 64, kernel_size=(3, 3), stride=(1, 1), padding=(1, 1))
            (1): ReLU(inplace)
            (2): Conv2d(64, 64, kernel_size=(3, 3), stride=(1, 1), padding=(1, 1))
            (3): CALayer(
              (avg_pool): AdaptiveAvgPool2d(output_size=1)
              (conv_du): Sequential(
                (0): Conv2d(64, 4, kernel_size=(1, 1), stride=(1, 1))
                (1): ReLU(inplace)
                (2): Conv2d(4, 64, kernel_size=(1, 1), stride=(1, 1))
                (3): Sigmoid()
              )
            )
          )
        )
        (2): RCAB(
          (body): Sequential(
            (0): Conv2d(64, 64, kernel_size=(3, 3), stride=(1, 1), padding=(1, 1))
            (1): ReLU(inplace)
            (2): Conv2d(64, 64, kernel_size=(3, 3), stride=(1, 1), padding=(1, 1))
            (3): CALayer(
              (avg_pool): AdaptiveAvgPool2d(output_size=1)
              (conv_du): Sequential(
                (0): Conv2d(64, 4, kernel_size=(1, 1), stride=(1, 1))
                (1): ReLU(inplace)
                (2): Conv2d(4, 64, kernel_size=(1, 1), stride=(1, 1))
                (3): Sigmoid()
              )
            )
          )
        )
        (3): RCAB(
          (body): Sequential(
            (0): Conv2d(64, 64, kernel_size=(3, 3), stride=(1, 1), padding=(1, 1))
            (1): ReLU(inplace)
            (2): Conv2d(64, 64, kernel_size=(3, 3), stride=(1, 1), padding=(1, 1))
            (3): CALayer(
              (avg_pool): AdaptiveAvgPool2d(output_size=1)
              (conv_du): Sequential(
                (0): Conv2d(64, 4, kernel_size=(1, 1), stride=(1, 1))
                (1): ReLU(inplace)
                (2): Conv2d(4, 64, kernel_size=(1, 1), stride=(1, 1))
                (3): Sigmoid()
              )
            )
          )
        )
        (4): RCAB(
          (body): Sequential(
            (0): Conv2d(64, 64, kernel_size=(3, 3), stride=(1, 1), padding=(1, 1))
            (1): ReLU(inplace)
            (2): Conv2d(64, 64, kernel_size=(3, 3), stride=(1, 1), padding=(1, 1))
            (3): CALayer(
              (avg_pool): AdaptiveAvgPool2d(output_size=1)
              (conv_du): Sequential(
                (0): Conv2d(64, 4, kernel_size=(1, 1), stride=(1, 1))
                (1): ReLU(inplace)
                (2): Conv2d(4, 64, kernel_size=(1, 1), stride=(1, 1))
                (3): Sigmoid()
              )
            )
          )
        )
        (5): RCAB(
          (body): Sequential(
            (0): Conv2d(64, 64, kernel_size=(3, 3), stride=(1, 1), padding=(1, 1))
            (1): ReLU(inplace)
            (2): Conv2d(64, 64, kernel_size=(3, 3), stride=(1, 1), padding=(1, 1))
            (3): CALayer(
              (avg_pool): AdaptiveAvgPool2d(output_size=1)
              (conv_du): Sequential(
                (0): Conv2d(64, 4, kernel_size=(1, 1), stride=(1, 1))
                (1): ReLU(inplace)
                (2): Conv2d(4, 64, kernel_size=(1, 1), stride=(1, 1))
                (3): Sigmoid()
              )
            )
          )
        )
        (6): RCAB(
          (body): Sequential(
            (0): Conv2d(64, 64, kernel_size=(3, 3), stride=(1, 1), padding=(1, 1))
            (1): ReLU(inplace)
            (2): Conv2d(64, 64, kernel_size=(3, 3), stride=(1, 1), padding=(1, 1))
            (3): CALayer(
              (avg_pool): AdaptiveAvgPool2d(output_size=1)
              (conv_du): Sequential(
                (0): Conv2d(64, 4, kernel_size=(1, 1), stride=(1, 1))
                (1): ReLU(inplace)
                (2): Conv2d(4, 64, kernel_size=(1, 1), stride=(1, 1))
                (3): Sigmoid()
              )
            )
          )
        )
        (7): RCAB(
          (body): Sequential(
            (0): Conv2d(64, 64, kernel_size=(3, 3), stride=(1, 1), padding=(1, 1))
            (1): ReLU(inplace)
            (2): Conv2d(64, 64, kernel_size=(3, 3), stride=(1, 1), padding=(1, 1))
            (3): CALayer(
              (avg_pool): AdaptiveAvgPool2d(output_size=1)
              (conv_du): Sequential(
                (0): Conv2d(64, 4, kernel_size=(1, 1), stride=(1, 1))
                (1): ReLU(inplace)
                (2): Conv2d(4, 64, kernel_size=(1, 1), stride=(1, 1))
                (3): Sigmoid()
              )
            )
          )
        )
        (8): RCAB(
          (body): Sequential(
            (0): Conv2d(64, 64, kernel_size=(3, 3), stride=(1, 1), padding=(1, 1))
            (1): ReLU(inplace)
            (2): Conv2d(64, 64, kernel_size=(3, 3), stride=(1, 1), padding=(1, 1))
            (3): CALayer(
              (avg_pool): AdaptiveAvgPool2d(output_size=1)
              (conv_du): Sequential(
                (0): Conv2d(64, 4, kernel_size=(1, 1), stride=(1, 1))
                (1): ReLU(inplace)
                (2): Conv2d(4, 64, kernel_size=(1, 1), stride=(1, 1))
                (3): Sigmoid()
              )
            )
          )
        )
        (9): RCAB(
          (body): Sequential(
            (0): Conv2d(64, 64, kernel_size=(3, 3), stride=(1, 1), padding=(1, 1))
            (1): ReLU(inplace)
            (2): Conv2d(64, 64, kernel_size=(3, 3), stride=(1, 1), padding=(1, 1))
            (3): CALayer(
              (avg_pool): AdaptiveAvgPool2d(output_size=1)
              (conv_du): Sequential(
                (0): Conv2d(64, 4, kernel_size=(1, 1), stride=(1, 1))
                (1): ReLU(inplace)
                (2): Conv2d(4, 64, kernel_size=(1, 1), stride=(1, 1))
                (3): Sigmoid()
              )
            )
          )
        )
        (10): RCAB(
          (body): Sequential(
            (0): Conv2d(64, 64, kernel_size=(3, 3), stride=(1, 1), padding=(1, 1))
            (1): ReLU(inplace)
            (2): Conv2d(64, 64, kernel_size=(3, 3), stride=(1, 1), padding=(1, 1))
            (3): CALayer(
              (avg_pool): AdaptiveAvgPool2d(output_size=1)
              (conv_du): Sequential(
                (0): Conv2d(64, 4, kernel_size=(1, 1), stride=(1, 1))
                (1): ReLU(inplace)
                (2): Conv2d(4, 64, kernel_size=(1, 1), stride=(1, 1))
                (3): Sigmoid()
              )
            )
          )
        )
        (11): RCAB(
          (body): Sequential(
            (0): Conv2d(64, 64, kernel_size=(3, 3), stride=(1, 1), padding=(1, 1))
            (1): ReLU(inplace)
            (2): Conv2d(64, 64, kernel_size=(3, 3), stride=(1, 1), padding=(1, 1))
            (3): CALayer(
              (avg_pool): AdaptiveAvgPool2d(output_size=1)
              (conv_du): Sequential(
                (0): Conv2d(64, 4, kernel_size=(1, 1), stride=(1, 1))
                (1): ReLU(inplace)
                (2): Conv2d(4, 64, kernel_size=(1, 1), stride=(1, 1))
                (3): Sigmoid()
              )
            )
          )
        )
        (12): RCAB(
          (body): Sequential(
            (0): Conv2d(64, 64, kernel_size=(3, 3), stride=(1, 1), padding=(1, 1))
            (1): ReLU(inplace)
            (2): Conv2d(64, 64, kernel_size=(3, 3), stride=(1, 1), padding=(1, 1))
            (3): CALayer(
              (avg_pool): AdaptiveAvgPool2d(output_size=1)
              (conv_du): Sequential(
                (0): Conv2d(64, 4, kernel_size=(1, 1), stride=(1, 1))
                (1): ReLU(inplace)
                (2): Conv2d(4, 64, kernel_size=(1, 1), stride=(1, 1))
                (3): Sigmoid()
              )
            )
          )
        )
        (13): RCAB(
          (body): Sequential(
            (0): Conv2d(64, 64, kernel_size=(3, 3), stride=(1, 1), padding=(1, 1))
            (1): ReLU(inplace)
            (2): Conv2d(64, 64, kernel_size=(3, 3), stride=(1, 1), padding=(1, 1))
            (3): CALayer(
              (avg_pool): AdaptiveAvgPool2d(output_size=1)
              (conv_du): Sequential(
                (0): Conv2d(64, 4, kernel_size=(1, 1), stride=(1, 1))
                (1): ReLU(inplace)
                (2): Conv2d(4, 64, kernel_size=(1, 1), stride=(1, 1))
                (3): Sigmoid()
              )
            )
          )
        )
        (14): RCAB(
          (body): Sequential(
            (0): Conv2d(64, 64, kernel_size=(3, 3), stride=(1, 1), padding=(1, 1))
            (1): ReLU(inplace)
            (2): Conv2d(64, 64, kernel_size=(3, 3), stride=(1, 1), padding=(1, 1))
            (3): CALayer(
              (avg_pool): AdaptiveAvgPool2d(output_size=1)
              (conv_du): Sequential(
                (0): Conv2d(64, 4, kernel_size=(1, 1), stride=(1, 1))
                (1): ReLU(inplace)
                (2): Conv2d(4, 64, kernel_size=(1, 1), stride=(1, 1))
                (3): Sigmoid()
              )
            )
          )
        )
        (15): RCAB(
          (body): Sequential(
            (0): Conv2d(64, 64, kernel_size=(3, 3), stride=(1, 1), padding=(1, 1))
            (1): ReLU(inplace)
            (2): Conv2d(64, 64, kernel_size=(3, 3), stride=(1, 1), padding=(1, 1))
            (3): CALayer(
              (avg_pool): AdaptiveAvgPool2d(output_size=1)
              (conv_du): Sequential(
                (0): Conv2d(64, 4, kernel_size=(1, 1), stride=(1, 1))
                (1): ReLU(inplace)
                (2): Conv2d(4, 64, kernel_size=(1, 1), stride=(1, 1))
                (3): Sigmoid()
              )
            )
          )
        )
        (16): Conv2d(64, 64, kernel_size=(3, 3), stride=(1, 1), padding=(1, 1))
      )
    )
    (5): ResidualGroup(
      (body): Sequential(
        (0): RCAB(
          (body): Sequential(
            (0): Conv2d(64, 64, kernel_size=(3, 3), stride=(1, 1), padding=(1, 1))
            (1): ReLU(inplace)
            (2): Conv2d(64, 64, kernel_size=(3, 3), stride=(1, 1), padding=(1, 1))
            (3): CALayer(
              (avg_pool): AdaptiveAvgPool2d(output_size=1)
              (conv_du): Sequential(
                (0): Conv2d(64, 4, kernel_size=(1, 1), stride=(1, 1))
                (1): ReLU(inplace)
                (2): Conv2d(4, 64, kernel_size=(1, 1), stride=(1, 1))
                (3): Sigmoid()
              )
            )
          )
        )
        (1): RCAB(
          (body): Sequential(
            (0): Conv2d(64, 64, kernel_size=(3, 3), stride=(1, 1), padding=(1, 1))
            (1): ReLU(inplace)
            (2): Conv2d(64, 64, kernel_size=(3, 3), stride=(1, 1), padding=(1, 1))
            (3): CALayer(
              (avg_pool): AdaptiveAvgPool2d(output_size=1)
              (conv_du): Sequential(
                (0): Conv2d(64, 4, kernel_size=(1, 1), stride=(1, 1))
                (1): ReLU(inplace)
                (2): Conv2d(4, 64, kernel_size=(1, 1), stride=(1, 1))
                (3): Sigmoid()
              )
            )
          )
        )
        (2): RCAB(
          (body): Sequential(
            (0): Conv2d(64, 64, kernel_size=(3, 3), stride=(1, 1), padding=(1, 1))
            (1): ReLU(inplace)
            (2): Conv2d(64, 64, kernel_size=(3, 3), stride=(1, 1), padding=(1, 1))
            (3): CALayer(
              (avg_pool): AdaptiveAvgPool2d(output_size=1)
              (conv_du): Sequential(
                (0): Conv2d(64, 4, kernel_size=(1, 1), stride=(1, 1))
                (1): ReLU(inplace)
                (2): Conv2d(4, 64, kernel_size=(1, 1), stride=(1, 1))
                (3): Sigmoid()
              )
            )
          )
        )
        (3): RCAB(
          (body): Sequential(
            (0): Conv2d(64, 64, kernel_size=(3, 3), stride=(1, 1), padding=(1, 1))
            (1): ReLU(inplace)
            (2): Conv2d(64, 64, kernel_size=(3, 3), stride=(1, 1), padding=(1, 1))
            (3): CALayer(
              (avg_pool): AdaptiveAvgPool2d(output_size=1)
              (conv_du): Sequential(
                (0): Conv2d(64, 4, kernel_size=(1, 1), stride=(1, 1))
                (1): ReLU(inplace)
                (2): Conv2d(4, 64, kernel_size=(1, 1), stride=(1, 1))
                (3): Sigmoid()
              )
            )
          )
        )
        (4): RCAB(
          (body): Sequential(
            (0): Conv2d(64, 64, kernel_size=(3, 3), stride=(1, 1), padding=(1, 1))
            (1): ReLU(inplace)
            (2): Conv2d(64, 64, kernel_size=(3, 3), stride=(1, 1), padding=(1, 1))
            (3): CALayer(
              (avg_pool): AdaptiveAvgPool2d(output_size=1)
              (conv_du): Sequential(
                (0): Conv2d(64, 4, kernel_size=(1, 1), stride=(1, 1))
                (1): ReLU(inplace)
                (2): Conv2d(4, 64, kernel_size=(1, 1), stride=(1, 1))
                (3): Sigmoid()
              )
            )
          )
        )
        (5): RCAB(
          (body): Sequential(
            (0): Conv2d(64, 64, kernel_size=(3, 3), stride=(1, 1), padding=(1, 1))
            (1): ReLU(inplace)
            (2): Conv2d(64, 64, kernel_size=(3, 3), stride=(1, 1), padding=(1, 1))
            (3): CALayer(
              (avg_pool): AdaptiveAvgPool2d(output_size=1)
              (conv_du): Sequential(
                (0): Conv2d(64, 4, kernel_size=(1, 1), stride=(1, 1))
                (1): ReLU(inplace)
                (2): Conv2d(4, 64, kernel_size=(1, 1), stride=(1, 1))
                (3): Sigmoid()
              )
            )
          )
        )
        (6): RCAB(
          (body): Sequential(
            (0): Conv2d(64, 64, kernel_size=(3, 3), stride=(1, 1), padding=(1, 1))
            (1): ReLU(inplace)
            (2): Conv2d(64, 64, kernel_size=(3, 3), stride=(1, 1), padding=(1, 1))
            (3): CALayer(
              (avg_pool): AdaptiveAvgPool2d(output_size=1)
              (conv_du): Sequential(
                (0): Conv2d(64, 4, kernel_size=(1, 1), stride=(1, 1))
                (1): ReLU(inplace)
                (2): Conv2d(4, 64, kernel_size=(1, 1), stride=(1, 1))
                (3): Sigmoid()
              )
            )
          )
        )
        (7): RCAB(
          (body): Sequential(
            (0): Conv2d(64, 64, kernel_size=(3, 3), stride=(1, 1), padding=(1, 1))
            (1): ReLU(inplace)
            (2): Conv2d(64, 64, kernel_size=(3, 3), stride=(1, 1), padding=(1, 1))
            (3): CALayer(
              (avg_pool): AdaptiveAvgPool2d(output_size=1)
              (conv_du): Sequential(
                (0): Conv2d(64, 4, kernel_size=(1, 1), stride=(1, 1))
                (1): ReLU(inplace)
                (2): Conv2d(4, 64, kernel_size=(1, 1), stride=(1, 1))
                (3): Sigmoid()
              )
            )
          )
        )
        (8): RCAB(
          (body): Sequential(
            (0): Conv2d(64, 64, kernel_size=(3, 3), stride=(1, 1), padding=(1, 1))
            (1): ReLU(inplace)
            (2): Conv2d(64, 64, kernel_size=(3, 3), stride=(1, 1), padding=(1, 1))
            (3): CALayer(
              (avg_pool): AdaptiveAvgPool2d(output_size=1)
              (conv_du): Sequential(
                (0): Conv2d(64, 4, kernel_size=(1, 1), stride=(1, 1))
                (1): ReLU(inplace)
                (2): Conv2d(4, 64, kernel_size=(1, 1), stride=(1, 1))
                (3): Sigmoid()
              )
            )
          )
        )
        (9): RCAB(
          (body): Sequential(
            (0): Conv2d(64, 64, kernel_size=(3, 3), stride=(1, 1), padding=(1, 1))
            (1): ReLU(inplace)
            (2): Conv2d(64, 64, kernel_size=(3, 3), stride=(1, 1), padding=(1, 1))
            (3): CALayer(
              (avg_pool): AdaptiveAvgPool2d(output_size=1)
              (conv_du): Sequential(
                (0): Conv2d(64, 4, kernel_size=(1, 1), stride=(1, 1))
                (1): ReLU(inplace)
                (2): Conv2d(4, 64, kernel_size=(1, 1), stride=(1, 1))
                (3): Sigmoid()
              )
            )
          )
        )
        (10): RCAB(
          (body): Sequential(
            (0): Conv2d(64, 64, kernel_size=(3, 3), stride=(1, 1), padding=(1, 1))
            (1): ReLU(inplace)
            (2): Conv2d(64, 64, kernel_size=(3, 3), stride=(1, 1), padding=(1, 1))
            (3): CALayer(
              (avg_pool): AdaptiveAvgPool2d(output_size=1)
              (conv_du): Sequential(
                (0): Conv2d(64, 4, kernel_size=(1, 1), stride=(1, 1))
                (1): ReLU(inplace)
                (2): Conv2d(4, 64, kernel_size=(1, 1), stride=(1, 1))
                (3): Sigmoid()
              )
            )
          )
        )
        (11): RCAB(
          (body): Sequential(
            (0): Conv2d(64, 64, kernel_size=(3, 3), stride=(1, 1), padding=(1, 1))
            (1): ReLU(inplace)
            (2): Conv2d(64, 64, kernel_size=(3, 3), stride=(1, 1), padding=(1, 1))
            (3): CALayer(
              (avg_pool): AdaptiveAvgPool2d(output_size=1)
              (conv_du): Sequential(
                (0): Conv2d(64, 4, kernel_size=(1, 1), stride=(1, 1))
                (1): ReLU(inplace)
                (2): Conv2d(4, 64, kernel_size=(1, 1), stride=(1, 1))
                (3): Sigmoid()
              )
            )
          )
        )
        (12): RCAB(
          (body): Sequential(
            (0): Conv2d(64, 64, kernel_size=(3, 3), stride=(1, 1), padding=(1, 1))
            (1): ReLU(inplace)
            (2): Conv2d(64, 64, kernel_size=(3, 3), stride=(1, 1), padding=(1, 1))
            (3): CALayer(
              (avg_pool): AdaptiveAvgPool2d(output_size=1)
              (conv_du): Sequential(
                (0): Conv2d(64, 4, kernel_size=(1, 1), stride=(1, 1))
                (1): ReLU(inplace)
                (2): Conv2d(4, 64, kernel_size=(1, 1), stride=(1, 1))
                (3): Sigmoid()
              )
            )
          )
        )
        (13): RCAB(
          (body): Sequential(
            (0): Conv2d(64, 64, kernel_size=(3, 3), stride=(1, 1), padding=(1, 1))
            (1): ReLU(inplace)
            (2): Conv2d(64, 64, kernel_size=(3, 3), stride=(1, 1), padding=(1, 1))
            (3): CALayer(
              (avg_pool): AdaptiveAvgPool2d(output_size=1)
              (conv_du): Sequential(
                (0): Conv2d(64, 4, kernel_size=(1, 1), stride=(1, 1))
                (1): ReLU(inplace)
                (2): Conv2d(4, 64, kernel_size=(1, 1), stride=(1, 1))
                (3): Sigmoid()
              )
            )
          )
        )
        (14): RCAB(
          (body): Sequential(
            (0): Conv2d(64, 64, kernel_size=(3, 3), stride=(1, 1), padding=(1, 1))
            (1): ReLU(inplace)
            (2): Conv2d(64, 64, kernel_size=(3, 3), stride=(1, 1), padding=(1, 1))
            (3): CALayer(
              (avg_pool): AdaptiveAvgPool2d(output_size=1)
              (conv_du): Sequential(
                (0): Conv2d(64, 4, kernel_size=(1, 1), stride=(1, 1))
                (1): ReLU(inplace)
                (2): Conv2d(4, 64, kernel_size=(1, 1), stride=(1, 1))
                (3): Sigmoid()
              )
            )
          )
        )
        (15): RCAB(
          (body): Sequential(
            (0): Conv2d(64, 64, kernel_size=(3, 3), stride=(1, 1), padding=(1, 1))
            (1): ReLU(inplace)
            (2): Conv2d(64, 64, kernel_size=(3, 3), stride=(1, 1), padding=(1, 1))
            (3): CALayer(
              (avg_pool): AdaptiveAvgPool2d(output_size=1)
              (conv_du): Sequential(
                (0): Conv2d(64, 4, kernel_size=(1, 1), stride=(1, 1))
                (1): ReLU(inplace)
                (2): Conv2d(4, 64, kernel_size=(1, 1), stride=(1, 1))
                (3): Sigmoid()
              )
            )
          )
        )
        (16): Conv2d(64, 64, kernel_size=(3, 3), stride=(1, 1), padding=(1, 1))
      )
    )
    (6): ResidualGroup(
      (body): Sequential(
        (0): RCAB(
          (body): Sequential(
            (0): Conv2d(64, 64, kernel_size=(3, 3), stride=(1, 1), padding=(1, 1))
            (1): ReLU(inplace)
            (2): Conv2d(64, 64, kernel_size=(3, 3), stride=(1, 1), padding=(1, 1))
            (3): CALayer(
              (avg_pool): AdaptiveAvgPool2d(output_size=1)
              (conv_du): Sequential(
                (0): Conv2d(64, 4, kernel_size=(1, 1), stride=(1, 1))
                (1): ReLU(inplace)
                (2): Conv2d(4, 64, kernel_size=(1, 1), stride=(1, 1))
                (3): Sigmoid()
              )
            )
          )
        )
        (1): RCAB(
          (body): Sequential(
            (0): Conv2d(64, 64, kernel_size=(3, 3), stride=(1, 1), padding=(1, 1))
            (1): ReLU(inplace)
            (2): Conv2d(64, 64, kernel_size=(3, 3), stride=(1, 1), padding=(1, 1))
            (3): CALayer(
              (avg_pool): AdaptiveAvgPool2d(output_size=1)
              (conv_du): Sequential(
                (0): Conv2d(64, 4, kernel_size=(1, 1), stride=(1, 1))
                (1): ReLU(inplace)
                (2): Conv2d(4, 64, kernel_size=(1, 1), stride=(1, 1))
                (3): Sigmoid()
              )
            )
          )
        )
        (2): RCAB(
          (body): Sequential(
            (0): Conv2d(64, 64, kernel_size=(3, 3), stride=(1, 1), padding=(1, 1))
            (1): ReLU(inplace)
            (2): Conv2d(64, 64, kernel_size=(3, 3), stride=(1, 1), padding=(1, 1))
            (3): CALayer(
              (avg_pool): AdaptiveAvgPool2d(output_size=1)
              (conv_du): Sequential(
                (0): Conv2d(64, 4, kernel_size=(1, 1), stride=(1, 1))
                (1): ReLU(inplace)
                (2): Conv2d(4, 64, kernel_size=(1, 1), stride=(1, 1))
                (3): Sigmoid()
              )
            )
          )
        )
        (3): RCAB(
          (body): Sequential(
            (0): Conv2d(64, 64, kernel_size=(3, 3), stride=(1, 1), padding=(1, 1))
            (1): ReLU(inplace)
            (2): Conv2d(64, 64, kernel_size=(3, 3), stride=(1, 1), padding=(1, 1))
            (3): CALayer(
              (avg_pool): AdaptiveAvgPool2d(output_size=1)
              (conv_du): Sequential(
                (0): Conv2d(64, 4, kernel_size=(1, 1), stride=(1, 1))
                (1): ReLU(inplace)
                (2): Conv2d(4, 64, kernel_size=(1, 1), stride=(1, 1))
                (3): Sigmoid()
              )
            )
          )
        )
        (4): RCAB(
          (body): Sequential(
            (0): Conv2d(64, 64, kernel_size=(3, 3), stride=(1, 1), padding=(1, 1))
            (1): ReLU(inplace)
            (2): Conv2d(64, 64, kernel_size=(3, 3), stride=(1, 1), padding=(1, 1))
            (3): CALayer(
              (avg_pool): AdaptiveAvgPool2d(output_size=1)
              (conv_du): Sequential(
                (0): Conv2d(64, 4, kernel_size=(1, 1), stride=(1, 1))
                (1): ReLU(inplace)
                (2): Conv2d(4, 64, kernel_size=(1, 1), stride=(1, 1))
                (3): Sigmoid()
              )
            )
          )
        )
        (5): RCAB(
          (body): Sequential(
            (0): Conv2d(64, 64, kernel_size=(3, 3), stride=(1, 1), padding=(1, 1))
            (1): ReLU(inplace)
            (2): Conv2d(64, 64, kernel_size=(3, 3), stride=(1, 1), padding=(1, 1))
            (3): CALayer(
              (avg_pool): AdaptiveAvgPool2d(output_size=1)
              (conv_du): Sequential(
                (0): Conv2d(64, 4, kernel_size=(1, 1), stride=(1, 1))
                (1): ReLU(inplace)
                (2): Conv2d(4, 64, kernel_size=(1, 1), stride=(1, 1))
                (3): Sigmoid()
              )
            )
          )
        )
        (6): RCAB(
          (body): Sequential(
            (0): Conv2d(64, 64, kernel_size=(3, 3), stride=(1, 1), padding=(1, 1))
            (1): ReLU(inplace)
            (2): Conv2d(64, 64, kernel_size=(3, 3), stride=(1, 1), padding=(1, 1))
            (3): CALayer(
              (avg_pool): AdaptiveAvgPool2d(output_size=1)
              (conv_du): Sequential(
                (0): Conv2d(64, 4, kernel_size=(1, 1), stride=(1, 1))
                (1): ReLU(inplace)
                (2): Conv2d(4, 64, kernel_size=(1, 1), stride=(1, 1))
                (3): Sigmoid()
              )
            )
          )
        )
        (7): RCAB(
          (body): Sequential(
            (0): Conv2d(64, 64, kernel_size=(3, 3), stride=(1, 1), padding=(1, 1))
            (1): ReLU(inplace)
            (2): Conv2d(64, 64, kernel_size=(3, 3), stride=(1, 1), padding=(1, 1))
            (3): CALayer(
              (avg_pool): AdaptiveAvgPool2d(output_size=1)
              (conv_du): Sequential(
                (0): Conv2d(64, 4, kernel_size=(1, 1), stride=(1, 1))
                (1): ReLU(inplace)
                (2): Conv2d(4, 64, kernel_size=(1, 1), stride=(1, 1))
                (3): Sigmoid()
              )
            )
          )
        )
        (8): RCAB(
          (body): Sequential(
            (0): Conv2d(64, 64, kernel_size=(3, 3), stride=(1, 1), padding=(1, 1))
            (1): ReLU(inplace)
            (2): Conv2d(64, 64, kernel_size=(3, 3), stride=(1, 1), padding=(1, 1))
            (3): CALayer(
              (avg_pool): AdaptiveAvgPool2d(output_size=1)
              (conv_du): Sequential(
                (0): Conv2d(64, 4, kernel_size=(1, 1), stride=(1, 1))
                (1): ReLU(inplace)
                (2): Conv2d(4, 64, kernel_size=(1, 1), stride=(1, 1))
                (3): Sigmoid()
              )
            )
          )
        )
        (9): RCAB(
          (body): Sequential(
            (0): Conv2d(64, 64, kernel_size=(3, 3), stride=(1, 1), padding=(1, 1))
            (1): ReLU(inplace)
            (2): Conv2d(64, 64, kernel_size=(3, 3), stride=(1, 1), padding=(1, 1))
            (3): CALayer(
              (avg_pool): AdaptiveAvgPool2d(output_size=1)
              (conv_du): Sequential(
                (0): Conv2d(64, 4, kernel_size=(1, 1), stride=(1, 1))
                (1): ReLU(inplace)
                (2): Conv2d(4, 64, kernel_size=(1, 1), stride=(1, 1))
                (3): Sigmoid()
              )
            )
          )
        )
        (10): RCAB(
          (body): Sequential(
            (0): Conv2d(64, 64, kernel_size=(3, 3), stride=(1, 1), padding=(1, 1))
            (1): ReLU(inplace)
            (2): Conv2d(64, 64, kernel_size=(3, 3), stride=(1, 1), padding=(1, 1))
            (3): CALayer(
              (avg_pool): AdaptiveAvgPool2d(output_size=1)
              (conv_du): Sequential(
                (0): Conv2d(64, 4, kernel_size=(1, 1), stride=(1, 1))
                (1): ReLU(inplace)
                (2): Conv2d(4, 64, kernel_size=(1, 1), stride=(1, 1))
                (3): Sigmoid()
              )
            )
          )
        )
        (11): RCAB(
          (body): Sequential(
            (0): Conv2d(64, 64, kernel_size=(3, 3), stride=(1, 1), padding=(1, 1))
            (1): ReLU(inplace)
            (2): Conv2d(64, 64, kernel_size=(3, 3), stride=(1, 1), padding=(1, 1))
            (3): CALayer(
              (avg_pool): AdaptiveAvgPool2d(output_size=1)
              (conv_du): Sequential(
                (0): Conv2d(64, 4, kernel_size=(1, 1), stride=(1, 1))
                (1): ReLU(inplace)
                (2): Conv2d(4, 64, kernel_size=(1, 1), stride=(1, 1))
                (3): Sigmoid()
              )
            )
          )
        )
        (12): RCAB(
          (body): Sequential(
            (0): Conv2d(64, 64, kernel_size=(3, 3), stride=(1, 1), padding=(1, 1))
            (1): ReLU(inplace)
            (2): Conv2d(64, 64, kernel_size=(3, 3), stride=(1, 1), padding=(1, 1))
            (3): CALayer(
              (avg_pool): AdaptiveAvgPool2d(output_size=1)
              (conv_du): Sequential(
                (0): Conv2d(64, 4, kernel_size=(1, 1), stride=(1, 1))
                (1): ReLU(inplace)
                (2): Conv2d(4, 64, kernel_size=(1, 1), stride=(1, 1))
                (3): Sigmoid()
              )
            )
          )
        )
        (13): RCAB(
          (body): Sequential(
            (0): Conv2d(64, 64, kernel_size=(3, 3), stride=(1, 1), padding=(1, 1))
            (1): ReLU(inplace)
            (2): Conv2d(64, 64, kernel_size=(3, 3), stride=(1, 1), padding=(1, 1))
            (3): CALayer(
              (avg_pool): AdaptiveAvgPool2d(output_size=1)
              (conv_du): Sequential(
                (0): Conv2d(64, 4, kernel_size=(1, 1), stride=(1, 1))
                (1): ReLU(inplace)
                (2): Conv2d(4, 64, kernel_size=(1, 1), stride=(1, 1))
                (3): Sigmoid()
              )
            )
          )
        )
        (14): RCAB(
          (body): Sequential(
            (0): Conv2d(64, 64, kernel_size=(3, 3), stride=(1, 1), padding=(1, 1))
            (1): ReLU(inplace)
            (2): Conv2d(64, 64, kernel_size=(3, 3), stride=(1, 1), padding=(1, 1))
            (3): CALayer(
              (avg_pool): AdaptiveAvgPool2d(output_size=1)
              (conv_du): Sequential(
                (0): Conv2d(64, 4, kernel_size=(1, 1), stride=(1, 1))
                (1): ReLU(inplace)
                (2): Conv2d(4, 64, kernel_size=(1, 1), stride=(1, 1))
                (3): Sigmoid()
              )
            )
          )
        )
        (15): RCAB(
          (body): Sequential(
            (0): Conv2d(64, 64, kernel_size=(3, 3), stride=(1, 1), padding=(1, 1))
            (1): ReLU(inplace)
            (2): Conv2d(64, 64, kernel_size=(3, 3), stride=(1, 1), padding=(1, 1))
            (3): CALayer(
              (avg_pool): AdaptiveAvgPool2d(output_size=1)
              (conv_du): Sequential(
                (0): Conv2d(64, 4, kernel_size=(1, 1), stride=(1, 1))
                (1): ReLU(inplace)
                (2): Conv2d(4, 64, kernel_size=(1, 1), stride=(1, 1))
                (3): Sigmoid()
              )
            )
          )
        )
        (16): Conv2d(64, 64, kernel_size=(3, 3), stride=(1, 1), padding=(1, 1))
      )
    )
    (7): ResidualGroup(
      (body): Sequential(
        (0): RCAB(
          (body): Sequential(
            (0): Conv2d(64, 64, kernel_size=(3, 3), stride=(1, 1), padding=(1, 1))
            (1): ReLU(inplace)
            (2): Conv2d(64, 64, kernel_size=(3, 3), stride=(1, 1), padding=(1, 1))
            (3): CALayer(
              (avg_pool): AdaptiveAvgPool2d(output_size=1)
              (conv_du): Sequential(
                (0): Conv2d(64, 4, kernel_size=(1, 1), stride=(1, 1))
                (1): ReLU(inplace)
                (2): Conv2d(4, 64, kernel_size=(1, 1), stride=(1, 1))
                (3): Sigmoid()
              )
            )
          )
        )
        (1): RCAB(
          (body): Sequential(
            (0): Conv2d(64, 64, kernel_size=(3, 3), stride=(1, 1), padding=(1, 1))
            (1): ReLU(inplace)
            (2): Conv2d(64, 64, kernel_size=(3, 3), stride=(1, 1), padding=(1, 1))
            (3): CALayer(
              (avg_pool): AdaptiveAvgPool2d(output_size=1)
              (conv_du): Sequential(
                (0): Conv2d(64, 4, kernel_size=(1, 1), stride=(1, 1))
                (1): ReLU(inplace)
                (2): Conv2d(4, 64, kernel_size=(1, 1), stride=(1, 1))
                (3): Sigmoid()
              )
            )
          )
        )
        (2): RCAB(
          (body): Sequential(
            (0): Conv2d(64, 64, kernel_size=(3, 3), stride=(1, 1), padding=(1, 1))
            (1): ReLU(inplace)
            (2): Conv2d(64, 64, kernel_size=(3, 3), stride=(1, 1), padding=(1, 1))
            (3): CALayer(
              (avg_pool): AdaptiveAvgPool2d(output_size=1)
              (conv_du): Sequential(
                (0): Conv2d(64, 4, kernel_size=(1, 1), stride=(1, 1))
                (1): ReLU(inplace)
                (2): Conv2d(4, 64, kernel_size=(1, 1), stride=(1, 1))
                (3): Sigmoid()
              )
            )
          )
        )
        (3): RCAB(
          (body): Sequential(
            (0): Conv2d(64, 64, kernel_size=(3, 3), stride=(1, 1), padding=(1, 1))
            (1): ReLU(inplace)
            (2): Conv2d(64, 64, kernel_size=(3, 3), stride=(1, 1), padding=(1, 1))
            (3): CALayer(
              (avg_pool): AdaptiveAvgPool2d(output_size=1)
              (conv_du): Sequential(
                (0): Conv2d(64, 4, kernel_size=(1, 1), stride=(1, 1))
                (1): ReLU(inplace)
                (2): Conv2d(4, 64, kernel_size=(1, 1), stride=(1, 1))
                (3): Sigmoid()
              )
            )
          )
        )
        (4): RCAB(
          (body): Sequential(
            (0): Conv2d(64, 64, kernel_size=(3, 3), stride=(1, 1), padding=(1, 1))
            (1): ReLU(inplace)
            (2): Conv2d(64, 64, kernel_size=(3, 3), stride=(1, 1), padding=(1, 1))
            (3): CALayer(
              (avg_pool): AdaptiveAvgPool2d(output_size=1)
              (conv_du): Sequential(
                (0): Conv2d(64, 4, kernel_size=(1, 1), stride=(1, 1))
                (1): ReLU(inplace)
                (2): Conv2d(4, 64, kernel_size=(1, 1), stride=(1, 1))
                (3): Sigmoid()
              )
            )
          )
        )
        (5): RCAB(
          (body): Sequential(
            (0): Conv2d(64, 64, kernel_size=(3, 3), stride=(1, 1), padding=(1, 1))
            (1): ReLU(inplace)
            (2): Conv2d(64, 64, kernel_size=(3, 3), stride=(1, 1), padding=(1, 1))
            (3): CALayer(
              (avg_pool): AdaptiveAvgPool2d(output_size=1)
              (conv_du): Sequential(
                (0): Conv2d(64, 4, kernel_size=(1, 1), stride=(1, 1))
                (1): ReLU(inplace)
                (2): Conv2d(4, 64, kernel_size=(1, 1), stride=(1, 1))
                (3): Sigmoid()
              )
            )
          )
        )
        (6): RCAB(
          (body): Sequential(
            (0): Conv2d(64, 64, kernel_size=(3, 3), stride=(1, 1), padding=(1, 1))
            (1): ReLU(inplace)
            (2): Conv2d(64, 64, kernel_size=(3, 3), stride=(1, 1), padding=(1, 1))
            (3): CALayer(
              (avg_pool): AdaptiveAvgPool2d(output_size=1)
              (conv_du): Sequential(
                (0): Conv2d(64, 4, kernel_size=(1, 1), stride=(1, 1))
                (1): ReLU(inplace)
                (2): Conv2d(4, 64, kernel_size=(1, 1), stride=(1, 1))
                (3): Sigmoid()
              )
            )
          )
        )
        (7): RCAB(
          (body): Sequential(
            (0): Conv2d(64, 64, kernel_size=(3, 3), stride=(1, 1), padding=(1, 1))
            (1): ReLU(inplace)
            (2): Conv2d(64, 64, kernel_size=(3, 3), stride=(1, 1), padding=(1, 1))
            (3): CALayer(
              (avg_pool): AdaptiveAvgPool2d(output_size=1)
              (conv_du): Sequential(
                (0): Conv2d(64, 4, kernel_size=(1, 1), stride=(1, 1))
                (1): ReLU(inplace)
                (2): Conv2d(4, 64, kernel_size=(1, 1), stride=(1, 1))
                (3): Sigmoid()
              )
            )
          )
        )
        (8): RCAB(
          (body): Sequential(
            (0): Conv2d(64, 64, kernel_size=(3, 3), stride=(1, 1), padding=(1, 1))
            (1): ReLU(inplace)
            (2): Conv2d(64, 64, kernel_size=(3, 3), stride=(1, 1), padding=(1, 1))
            (3): CALayer(
              (avg_pool): AdaptiveAvgPool2d(output_size=1)
              (conv_du): Sequential(
                (0): Conv2d(64, 4, kernel_size=(1, 1), stride=(1, 1))
                (1): ReLU(inplace)
                (2): Conv2d(4, 64, kernel_size=(1, 1), stride=(1, 1))
                (3): Sigmoid()
              )
            )
          )
        )
        (9): RCAB(
          (body): Sequential(
            (0): Conv2d(64, 64, kernel_size=(3, 3), stride=(1, 1), padding=(1, 1))
            (1): ReLU(inplace)
            (2): Conv2d(64, 64, kernel_size=(3, 3), stride=(1, 1), padding=(1, 1))
            (3): CALayer(
              (avg_pool): AdaptiveAvgPool2d(output_size=1)
              (conv_du): Sequential(
                (0): Conv2d(64, 4, kernel_size=(1, 1), stride=(1, 1))
                (1): ReLU(inplace)
                (2): Conv2d(4, 64, kernel_size=(1, 1), stride=(1, 1))
                (3): Sigmoid()
              )
            )
          )
        )
        (10): RCAB(
          (body): Sequential(
            (0): Conv2d(64, 64, kernel_size=(3, 3), stride=(1, 1), padding=(1, 1))
            (1): ReLU(inplace)
            (2): Conv2d(64, 64, kernel_size=(3, 3), stride=(1, 1), padding=(1, 1))
            (3): CALayer(
              (avg_pool): AdaptiveAvgPool2d(output_size=1)
              (conv_du): Sequential(
                (0): Conv2d(64, 4, kernel_size=(1, 1), stride=(1, 1))
                (1): ReLU(inplace)
                (2): Conv2d(4, 64, kernel_size=(1, 1), stride=(1, 1))
                (3): Sigmoid()
              )
            )
          )
        )
        (11): RCAB(
          (body): Sequential(
            (0): Conv2d(64, 64, kernel_size=(3, 3), stride=(1, 1), padding=(1, 1))
            (1): ReLU(inplace)
            (2): Conv2d(64, 64, kernel_size=(3, 3), stride=(1, 1), padding=(1, 1))
            (3): CALayer(
              (avg_pool): AdaptiveAvgPool2d(output_size=1)
              (conv_du): Sequential(
                (0): Conv2d(64, 4, kernel_size=(1, 1), stride=(1, 1))
                (1): ReLU(inplace)
                (2): Conv2d(4, 64, kernel_size=(1, 1), stride=(1, 1))
                (3): Sigmoid()
              )
            )
          )
        )
        (12): RCAB(
          (body): Sequential(
            (0): Conv2d(64, 64, kernel_size=(3, 3), stride=(1, 1), padding=(1, 1))
            (1): ReLU(inplace)
            (2): Conv2d(64, 64, kernel_size=(3, 3), stride=(1, 1), padding=(1, 1))
            (3): CALayer(
              (avg_pool): AdaptiveAvgPool2d(output_size=1)
              (conv_du): Sequential(
                (0): Conv2d(64, 4, kernel_size=(1, 1), stride=(1, 1))
                (1): ReLU(inplace)
                (2): Conv2d(4, 64, kernel_size=(1, 1), stride=(1, 1))
                (3): Sigmoid()
              )
            )
          )
        )
        (13): RCAB(
          (body): Sequential(
            (0): Conv2d(64, 64, kernel_size=(3, 3), stride=(1, 1), padding=(1, 1))
            (1): ReLU(inplace)
            (2): Conv2d(64, 64, kernel_size=(3, 3), stride=(1, 1), padding=(1, 1))
            (3): CALayer(
              (avg_pool): AdaptiveAvgPool2d(output_size=1)
              (conv_du): Sequential(
                (0): Conv2d(64, 4, kernel_size=(1, 1), stride=(1, 1))
                (1): ReLU(inplace)
                (2): Conv2d(4, 64, kernel_size=(1, 1), stride=(1, 1))
                (3): Sigmoid()
              )
            )
          )
        )
        (14): RCAB(
          (body): Sequential(
            (0): Conv2d(64, 64, kernel_size=(3, 3), stride=(1, 1), padding=(1, 1))
            (1): ReLU(inplace)
            (2): Conv2d(64, 64, kernel_size=(3, 3), stride=(1, 1), padding=(1, 1))
            (3): CALayer(
              (avg_pool): AdaptiveAvgPool2d(output_size=1)
              (conv_du): Sequential(
                (0): Conv2d(64, 4, kernel_size=(1, 1), stride=(1, 1))
                (1): ReLU(inplace)
                (2): Conv2d(4, 64, kernel_size=(1, 1), stride=(1, 1))
                (3): Sigmoid()
              )
            )
          )
        )
        (15): RCAB(
          (body): Sequential(
            (0): Conv2d(64, 64, kernel_size=(3, 3), stride=(1, 1), padding=(1, 1))
            (1): ReLU(inplace)
            (2): Conv2d(64, 64, kernel_size=(3, 3), stride=(1, 1), padding=(1, 1))
            (3): CALayer(
              (avg_pool): AdaptiveAvgPool2d(output_size=1)
              (conv_du): Sequential(
                (0): Conv2d(64, 4, kernel_size=(1, 1), stride=(1, 1))
                (1): ReLU(inplace)
                (2): Conv2d(4, 64, kernel_size=(1, 1), stride=(1, 1))
                (3): Sigmoid()
              )
            )
          )
        )
        (16): Conv2d(64, 64, kernel_size=(3, 3), stride=(1, 1), padding=(1, 1))
      )
    )
    (8): ResidualGroup(
      (body): Sequential(
        (0): RCAB(
          (body): Sequential(
            (0): Conv2d(64, 64, kernel_size=(3, 3), stride=(1, 1), padding=(1, 1))
            (1): ReLU(inplace)
            (2): Conv2d(64, 64, kernel_size=(3, 3), stride=(1, 1), padding=(1, 1))
            (3): CALayer(
              (avg_pool): AdaptiveAvgPool2d(output_size=1)
              (conv_du): Sequential(
                (0): Conv2d(64, 4, kernel_size=(1, 1), stride=(1, 1))
                (1): ReLU(inplace)
                (2): Conv2d(4, 64, kernel_size=(1, 1), stride=(1, 1))
                (3): Sigmoid()
              )
            )
          )
        )
        (1): RCAB(
          (body): Sequential(
            (0): Conv2d(64, 64, kernel_size=(3, 3), stride=(1, 1), padding=(1, 1))
            (1): ReLU(inplace)
            (2): Conv2d(64, 64, kernel_size=(3, 3), stride=(1, 1), padding=(1, 1))
            (3): CALayer(
              (avg_pool): AdaptiveAvgPool2d(output_size=1)
              (conv_du): Sequential(
                (0): Conv2d(64, 4, kernel_size=(1, 1), stride=(1, 1))
                (1): ReLU(inplace)
                (2): Conv2d(4, 64, kernel_size=(1, 1), stride=(1, 1))
                (3): Sigmoid()
              )
            )
          )
        )
        (2): RCAB(
          (body): Sequential(
            (0): Conv2d(64, 64, kernel_size=(3, 3), stride=(1, 1), padding=(1, 1))
            (1): ReLU(inplace)
            (2): Conv2d(64, 64, kernel_size=(3, 3), stride=(1, 1), padding=(1, 1))
            (3): CALayer(
              (avg_pool): AdaptiveAvgPool2d(output_size=1)
              (conv_du): Sequential(
                (0): Conv2d(64, 4, kernel_size=(1, 1), stride=(1, 1))
                (1): ReLU(inplace)
                (2): Conv2d(4, 64, kernel_size=(1, 1), stride=(1, 1))
                (3): Sigmoid()
              )
            )
          )
        )
        (3): RCAB(
          (body): Sequential(
            (0): Conv2d(64, 64, kernel_size=(3, 3), stride=(1, 1), padding=(1, 1))
            (1): ReLU(inplace)
            (2): Conv2d(64, 64, kernel_size=(3, 3), stride=(1, 1), padding=(1, 1))
            (3): CALayer(
              (avg_pool): AdaptiveAvgPool2d(output_size=1)
              (conv_du): Sequential(
                (0): Conv2d(64, 4, kernel_size=(1, 1), stride=(1, 1))
                (1): ReLU(inplace)
                (2): Conv2d(4, 64, kernel_size=(1, 1), stride=(1, 1))
                (3): Sigmoid()
              )
            )
          )
        )
        (4): RCAB(
          (body): Sequential(
            (0): Conv2d(64, 64, kernel_size=(3, 3), stride=(1, 1), padding=(1, 1))
            (1): ReLU(inplace)
            (2): Conv2d(64, 64, kernel_size=(3, 3), stride=(1, 1), padding=(1, 1))
            (3): CALayer(
              (avg_pool): AdaptiveAvgPool2d(output_size=1)
              (conv_du): Sequential(
                (0): Conv2d(64, 4, kernel_size=(1, 1), stride=(1, 1))
                (1): ReLU(inplace)
                (2): Conv2d(4, 64, kernel_size=(1, 1), stride=(1, 1))
                (3): Sigmoid()
              )
            )
          )
        )
        (5): RCAB(
          (body): Sequential(
            (0): Conv2d(64, 64, kernel_size=(3, 3), stride=(1, 1), padding=(1, 1))
            (1): ReLU(inplace)
            (2): Conv2d(64, 64, kernel_size=(3, 3), stride=(1, 1), padding=(1, 1))
            (3): CALayer(
              (avg_pool): AdaptiveAvgPool2d(output_size=1)
              (conv_du): Sequential(
                (0): Conv2d(64, 4, kernel_size=(1, 1), stride=(1, 1))
                (1): ReLU(inplace)
                (2): Conv2d(4, 64, kernel_size=(1, 1), stride=(1, 1))
                (3): Sigmoid()
              )
            )
          )
        )
        (6): RCAB(
          (body): Sequential(
            (0): Conv2d(64, 64, kernel_size=(3, 3), stride=(1, 1), padding=(1, 1))
            (1): ReLU(inplace)
            (2): Conv2d(64, 64, kernel_size=(3, 3), stride=(1, 1), padding=(1, 1))
            (3): CALayer(
              (avg_pool): AdaptiveAvgPool2d(output_size=1)
              (conv_du): Sequential(
                (0): Conv2d(64, 4, kernel_size=(1, 1), stride=(1, 1))
                (1): ReLU(inplace)
                (2): Conv2d(4, 64, kernel_size=(1, 1), stride=(1, 1))
                (3): Sigmoid()
              )
            )
          )
        )
        (7): RCAB(
          (body): Sequential(
            (0): Conv2d(64, 64, kernel_size=(3, 3), stride=(1, 1), padding=(1, 1))
            (1): ReLU(inplace)
            (2): Conv2d(64, 64, kernel_size=(3, 3), stride=(1, 1), padding=(1, 1))
            (3): CALayer(
              (avg_pool): AdaptiveAvgPool2d(output_size=1)
              (conv_du): Sequential(
                (0): Conv2d(64, 4, kernel_size=(1, 1), stride=(1, 1))
                (1): ReLU(inplace)
                (2): Conv2d(4, 64, kernel_size=(1, 1), stride=(1, 1))
                (3): Sigmoid()
              )
            )
          )
        )
        (8): RCAB(
          (body): Sequential(
            (0): Conv2d(64, 64, kernel_size=(3, 3), stride=(1, 1), padding=(1, 1))
            (1): ReLU(inplace)
            (2): Conv2d(64, 64, kernel_size=(3, 3), stride=(1, 1), padding=(1, 1))
            (3): CALayer(
              (avg_pool): AdaptiveAvgPool2d(output_size=1)
              (conv_du): Sequential(
                (0): Conv2d(64, 4, kernel_size=(1, 1), stride=(1, 1))
                (1): ReLU(inplace)
                (2): Conv2d(4, 64, kernel_size=(1, 1), stride=(1, 1))
                (3): Sigmoid()
              )
            )
          )
        )
        (9): RCAB(
          (body): Sequential(
            (0): Conv2d(64, 64, kernel_size=(3, 3), stride=(1, 1), padding=(1, 1))
            (1): ReLU(inplace)
            (2): Conv2d(64, 64, kernel_size=(3, 3), stride=(1, 1), padding=(1, 1))
            (3): CALayer(
              (avg_pool): AdaptiveAvgPool2d(output_size=1)
              (conv_du): Sequential(
                (0): Conv2d(64, 4, kernel_size=(1, 1), stride=(1, 1))
                (1): ReLU(inplace)
                (2): Conv2d(4, 64, kernel_size=(1, 1), stride=(1, 1))
                (3): Sigmoid()
              )
            )
          )
        )
        (10): RCAB(
          (body): Sequential(
            (0): Conv2d(64, 64, kernel_size=(3, 3), stride=(1, 1), padding=(1, 1))
            (1): ReLU(inplace)
            (2): Conv2d(64, 64, kernel_size=(3, 3), stride=(1, 1), padding=(1, 1))
            (3): CALayer(
              (avg_pool): AdaptiveAvgPool2d(output_size=1)
              (conv_du): Sequential(
                (0): Conv2d(64, 4, kernel_size=(1, 1), stride=(1, 1))
                (1): ReLU(inplace)
                (2): Conv2d(4, 64, kernel_size=(1, 1), stride=(1, 1))
                (3): Sigmoid()
              )
            )
          )
        )
        (11): RCAB(
          (body): Sequential(
            (0): Conv2d(64, 64, kernel_size=(3, 3), stride=(1, 1), padding=(1, 1))
            (1): ReLU(inplace)
            (2): Conv2d(64, 64, kernel_size=(3, 3), stride=(1, 1), padding=(1, 1))
            (3): CALayer(
              (avg_pool): AdaptiveAvgPool2d(output_size=1)
              (conv_du): Sequential(
                (0): Conv2d(64, 4, kernel_size=(1, 1), stride=(1, 1))
                (1): ReLU(inplace)
                (2): Conv2d(4, 64, kernel_size=(1, 1), stride=(1, 1))
                (3): Sigmoid()
              )
            )
          )
        )
        (12): RCAB(
          (body): Sequential(
            (0): Conv2d(64, 64, kernel_size=(3, 3), stride=(1, 1), padding=(1, 1))
            (1): ReLU(inplace)
            (2): Conv2d(64, 64, kernel_size=(3, 3), stride=(1, 1), padding=(1, 1))
            (3): CALayer(
              (avg_pool): AdaptiveAvgPool2d(output_size=1)
              (conv_du): Sequential(
                (0): Conv2d(64, 4, kernel_size=(1, 1), stride=(1, 1))
                (1): ReLU(inplace)
                (2): Conv2d(4, 64, kernel_size=(1, 1), stride=(1, 1))
                (3): Sigmoid()
              )
            )
          )
        )
        (13): RCAB(
          (body): Sequential(
            (0): Conv2d(64, 64, kernel_size=(3, 3), stride=(1, 1), padding=(1, 1))
            (1): ReLU(inplace)
            (2): Conv2d(64, 64, kernel_size=(3, 3), stride=(1, 1), padding=(1, 1))
            (3): CALayer(
              (avg_pool): AdaptiveAvgPool2d(output_size=1)
              (conv_du): Sequential(
                (0): Conv2d(64, 4, kernel_size=(1, 1), stride=(1, 1))
                (1): ReLU(inplace)
                (2): Conv2d(4, 64, kernel_size=(1, 1), stride=(1, 1))
                (3): Sigmoid()
              )
            )
          )
        )
        (14): RCAB(
          (body): Sequential(
            (0): Conv2d(64, 64, kernel_size=(3, 3), stride=(1, 1), padding=(1, 1))
            (1): ReLU(inplace)
            (2): Conv2d(64, 64, kernel_size=(3, 3), stride=(1, 1), padding=(1, 1))
            (3): CALayer(
              (avg_pool): AdaptiveAvgPool2d(output_size=1)
              (conv_du): Sequential(
                (0): Conv2d(64, 4, kernel_size=(1, 1), stride=(1, 1))
                (1): ReLU(inplace)
                (2): Conv2d(4, 64, kernel_size=(1, 1), stride=(1, 1))
                (3): Sigmoid()
              )
            )
          )
        )
        (15): RCAB(
          (body): Sequential(
            (0): Conv2d(64, 64, kernel_size=(3, 3), stride=(1, 1), padding=(1, 1))
            (1): ReLU(inplace)
            (2): Conv2d(64, 64, kernel_size=(3, 3), stride=(1, 1), padding=(1, 1))
            (3): CALayer(
              (avg_pool): AdaptiveAvgPool2d(output_size=1)
              (conv_du): Sequential(
                (0): Conv2d(64, 4, kernel_size=(1, 1), stride=(1, 1))
                (1): ReLU(inplace)
                (2): Conv2d(4, 64, kernel_size=(1, 1), stride=(1, 1))
                (3): Sigmoid()
              )
            )
          )
        )
        (16): Conv2d(64, 64, kernel_size=(3, 3), stride=(1, 1), padding=(1, 1))
      )
    )
    (9): ResidualGroup(
      (body): Sequential(
        (0): RCAB(
          (body): Sequential(
            (0): Conv2d(64, 64, kernel_size=(3, 3), stride=(1, 1), padding=(1, 1))
            (1): ReLU(inplace)
            (2): Conv2d(64, 64, kernel_size=(3, 3), stride=(1, 1), padding=(1, 1))
            (3): CALayer(
              (avg_pool): AdaptiveAvgPool2d(output_size=1)
              (conv_du): Sequential(
                (0): Conv2d(64, 4, kernel_size=(1, 1), stride=(1, 1))
                (1): ReLU(inplace)
                (2): Conv2d(4, 64, kernel_size=(1, 1), stride=(1, 1))
                (3): Sigmoid()
              )
            )
          )
        )
        (1): RCAB(
          (body): Sequential(
            (0): Conv2d(64, 64, kernel_size=(3, 3), stride=(1, 1), padding=(1, 1))
            (1): ReLU(inplace)
            (2): Conv2d(64, 64, kernel_size=(3, 3), stride=(1, 1), padding=(1, 1))
            (3): CALayer(
              (avg_pool): AdaptiveAvgPool2d(output_size=1)
              (conv_du): Sequential(
                (0): Conv2d(64, 4, kernel_size=(1, 1), stride=(1, 1))
                (1): ReLU(inplace)
                (2): Conv2d(4, 64, kernel_size=(1, 1), stride=(1, 1))
                (3): Sigmoid()
              )
            )
          )
        )
        (2): RCAB(
          (body): Sequential(
            (0): Conv2d(64, 64, kernel_size=(3, 3), stride=(1, 1), padding=(1, 1))
            (1): ReLU(inplace)
            (2): Conv2d(64, 64, kernel_size=(3, 3), stride=(1, 1), padding=(1, 1))
            (3): CALayer(
              (avg_pool): AdaptiveAvgPool2d(output_size=1)
              (conv_du): Sequential(
                (0): Conv2d(64, 4, kernel_size=(1, 1), stride=(1, 1))
                (1): ReLU(inplace)
                (2): Conv2d(4, 64, kernel_size=(1, 1), stride=(1, 1))
                (3): Sigmoid()
              )
            )
          )
        )
        (3): RCAB(
          (body): Sequential(
            (0): Conv2d(64, 64, kernel_size=(3, 3), stride=(1, 1), padding=(1, 1))
            (1): ReLU(inplace)
            (2): Conv2d(64, 64, kernel_size=(3, 3), stride=(1, 1), padding=(1, 1))
            (3): CALayer(
              (avg_pool): AdaptiveAvgPool2d(output_size=1)
              (conv_du): Sequential(
                (0): Conv2d(64, 4, kernel_size=(1, 1), stride=(1, 1))
                (1): ReLU(inplace)
                (2): Conv2d(4, 64, kernel_size=(1, 1), stride=(1, 1))
                (3): Sigmoid()
              )
            )
          )
        )
        (4): RCAB(
          (body): Sequential(
            (0): Conv2d(64, 64, kernel_size=(3, 3), stride=(1, 1), padding=(1, 1))
            (1): ReLU(inplace)
            (2): Conv2d(64, 64, kernel_size=(3, 3), stride=(1, 1), padding=(1, 1))
            (3): CALayer(
              (avg_pool): AdaptiveAvgPool2d(output_size=1)
              (conv_du): Sequential(
                (0): Conv2d(64, 4, kernel_size=(1, 1), stride=(1, 1))
                (1): ReLU(inplace)
                (2): Conv2d(4, 64, kernel_size=(1, 1), stride=(1, 1))
                (3): Sigmoid()
              )
            )
          )
        )
        (5): RCAB(
          (body): Sequential(
            (0): Conv2d(64, 64, kernel_size=(3, 3), stride=(1, 1), padding=(1, 1))
            (1): ReLU(inplace)
            (2): Conv2d(64, 64, kernel_size=(3, 3), stride=(1, 1), padding=(1, 1))
            (3): CALayer(
              (avg_pool): AdaptiveAvgPool2d(output_size=1)
              (conv_du): Sequential(
                (0): Conv2d(64, 4, kernel_size=(1, 1), stride=(1, 1))
                (1): ReLU(inplace)
                (2): Conv2d(4, 64, kernel_size=(1, 1), stride=(1, 1))
                (3): Sigmoid()
              )
            )
          )
        )
        (6): RCAB(
          (body): Sequential(
            (0): Conv2d(64, 64, kernel_size=(3, 3), stride=(1, 1), padding=(1, 1))
            (1): ReLU(inplace)
            (2): Conv2d(64, 64, kernel_size=(3, 3), stride=(1, 1), padding=(1, 1))
            (3): CALayer(
              (avg_pool): AdaptiveAvgPool2d(output_size=1)
              (conv_du): Sequential(
                (0): Conv2d(64, 4, kernel_size=(1, 1), stride=(1, 1))
                (1): ReLU(inplace)
                (2): Conv2d(4, 64, kernel_size=(1, 1), stride=(1, 1))
                (3): Sigmoid()
              )
            )
          )
        )
        (7): RCAB(
          (body): Sequential(
            (0): Conv2d(64, 64, kernel_size=(3, 3), stride=(1, 1), padding=(1, 1))
            (1): ReLU(inplace)
            (2): Conv2d(64, 64, kernel_size=(3, 3), stride=(1, 1), padding=(1, 1))
            (3): CALayer(
              (avg_pool): AdaptiveAvgPool2d(output_size=1)
              (conv_du): Sequential(
                (0): Conv2d(64, 4, kernel_size=(1, 1), stride=(1, 1))
                (1): ReLU(inplace)
                (2): Conv2d(4, 64, kernel_size=(1, 1), stride=(1, 1))
                (3): Sigmoid()
              )
            )
          )
        )
        (8): RCAB(
          (body): Sequential(
            (0): Conv2d(64, 64, kernel_size=(3, 3), stride=(1, 1), padding=(1, 1))
            (1): ReLU(inplace)
            (2): Conv2d(64, 64, kernel_size=(3, 3), stride=(1, 1), padding=(1, 1))
            (3): CALayer(
              (avg_pool): AdaptiveAvgPool2d(output_size=1)
              (conv_du): Sequential(
                (0): Conv2d(64, 4, kernel_size=(1, 1), stride=(1, 1))
                (1): ReLU(inplace)
                (2): Conv2d(4, 64, kernel_size=(1, 1), stride=(1, 1))
                (3): Sigmoid()
              )
            )
          )
        )
        (9): RCAB(
          (body): Sequential(
            (0): Conv2d(64, 64, kernel_size=(3, 3), stride=(1, 1), padding=(1, 1))
            (1): ReLU(inplace)
            (2): Conv2d(64, 64, kernel_size=(3, 3), stride=(1, 1), padding=(1, 1))
            (3): CALayer(
              (avg_pool): AdaptiveAvgPool2d(output_size=1)
              (conv_du): Sequential(
                (0): Conv2d(64, 4, kernel_size=(1, 1), stride=(1, 1))
                (1): ReLU(inplace)
                (2): Conv2d(4, 64, kernel_size=(1, 1), stride=(1, 1))
                (3): Sigmoid()
              )
            )
          )
        )
        (10): RCAB(
          (body): Sequential(
            (0): Conv2d(64, 64, kernel_size=(3, 3), stride=(1, 1), padding=(1, 1))
            (1): ReLU(inplace)
            (2): Conv2d(64, 64, kernel_size=(3, 3), stride=(1, 1), padding=(1, 1))
            (3): CALayer(
              (avg_pool): AdaptiveAvgPool2d(output_size=1)
              (conv_du): Sequential(
                (0): Conv2d(64, 4, kernel_size=(1, 1), stride=(1, 1))
                (1): ReLU(inplace)
                (2): Conv2d(4, 64, kernel_size=(1, 1), stride=(1, 1))
                (3): Sigmoid()
              )
            )
          )
        )
        (11): RCAB(
          (body): Sequential(
            (0): Conv2d(64, 64, kernel_size=(3, 3), stride=(1, 1), padding=(1, 1))
            (1): ReLU(inplace)
            (2): Conv2d(64, 64, kernel_size=(3, 3), stride=(1, 1), padding=(1, 1))
            (3): CALayer(
              (avg_pool): AdaptiveAvgPool2d(output_size=1)
              (conv_du): Sequential(
                (0): Conv2d(64, 4, kernel_size=(1, 1), stride=(1, 1))
                (1): ReLU(inplace)
                (2): Conv2d(4, 64, kernel_size=(1, 1), stride=(1, 1))
                (3): Sigmoid()
              )
            )
          )
        )
        (12): RCAB(
          (body): Sequential(
            (0): Conv2d(64, 64, kernel_size=(3, 3), stride=(1, 1), padding=(1, 1))
            (1): ReLU(inplace)
            (2): Conv2d(64, 64, kernel_size=(3, 3), stride=(1, 1), padding=(1, 1))
            (3): CALayer(
              (avg_pool): AdaptiveAvgPool2d(output_size=1)
              (conv_du): Sequential(
                (0): Conv2d(64, 4, kernel_size=(1, 1), stride=(1, 1))
                (1): ReLU(inplace)
                (2): Conv2d(4, 64, kernel_size=(1, 1), stride=(1, 1))
                (3): Sigmoid()
              )
            )
          )
        )
        (13): RCAB(
          (body): Sequential(
            (0): Conv2d(64, 64, kernel_size=(3, 3), stride=(1, 1), padding=(1, 1))
            (1): ReLU(inplace)
            (2): Conv2d(64, 64, kernel_size=(3, 3), stride=(1, 1), padding=(1, 1))
            (3): CALayer(
              (avg_pool): AdaptiveAvgPool2d(output_size=1)
              (conv_du): Sequential(
                (0): Conv2d(64, 4, kernel_size=(1, 1), stride=(1, 1))
                (1): ReLU(inplace)
                (2): Conv2d(4, 64, kernel_size=(1, 1), stride=(1, 1))
                (3): Sigmoid()
              )
            )
          )
        )
        (14): RCAB(
          (body): Sequential(
            (0): Conv2d(64, 64, kernel_size=(3, 3), stride=(1, 1), padding=(1, 1))
            (1): ReLU(inplace)
            (2): Conv2d(64, 64, kernel_size=(3, 3), stride=(1, 1), padding=(1, 1))
            (3): CALayer(
              (avg_pool): AdaptiveAvgPool2d(output_size=1)
              (conv_du): Sequential(
                (0): Conv2d(64, 4, kernel_size=(1, 1), stride=(1, 1))
                (1): ReLU(inplace)
                (2): Conv2d(4, 64, kernel_size=(1, 1), stride=(1, 1))
                (3): Sigmoid()
              )
            )
          )
        )
        (15): RCAB(
          (body): Sequential(
            (0): Conv2d(64, 64, kernel_size=(3, 3), stride=(1, 1), padding=(1, 1))
            (1): ReLU(inplace)
            (2): Conv2d(64, 64, kernel_size=(3, 3), stride=(1, 1), padding=(1, 1))
            (3): CALayer(
              (avg_pool): AdaptiveAvgPool2d(output_size=1)
              (conv_du): Sequential(
                (0): Conv2d(64, 4, kernel_size=(1, 1), stride=(1, 1))
                (1): ReLU(inplace)
                (2): Conv2d(4, 64, kernel_size=(1, 1), stride=(1, 1))
                (3): Sigmoid()
              )
            )
          )
        )
        (16): Conv2d(64, 64, kernel_size=(3, 3), stride=(1, 1), padding=(1, 1))
      )
    )
    (10): Conv2d(64, 64, kernel_size=(3, 3), stride=(1, 1), padding=(1, 1))
  )
  (P2W): Pos2Weight(
    (meta_block): Sequential(
      (0): Linear(in_features=3, out_features=256, bias=True)
      (1): ReLU(inplace)
      (2): Linear(in_features=256, out_features=1728, bias=True)
    )
  )
)

Evaluation:
RCAN(
  (sub_mean): MeanShift(3, 3, kernel_size=(1, 1), stride=(1, 1))
  (add_mean): MeanShift(3, 3, kernel_size=(1, 1), stride=(1, 1))
  (head): Sequential(
    (0): Conv2d(3, 64, kernel_size=(3, 3), stride=(1, 1), padding=(1, 1))
  )
  (body): Sequential(
    (0): ResidualGroup(
      (body): Sequential(
        (0): RCAB(
          (body): Sequential(
            (0): Conv2d(64, 64, kernel_size=(3, 3), stride=(1, 1), padding=(1, 1))
            (1): ReLU(inplace)
            (2): Conv2d(64, 64, kernel_size=(3, 3), stride=(1, 1), padding=(1, 1))
            (3): CALayer(
              (avg_pool): AdaptiveAvgPool2d(output_size=1)
              (conv_du): Sequential(
                (0): Conv2d(64, 4, kernel_size=(1, 1), stride=(1, 1))
                (1): ReLU(inplace)
                (2): Conv2d(4, 64, kernel_size=(1, 1), stride=(1, 1))
                (3): Sigmoid()
              )
            )
          )
        )
        (1): RCAB(
          (body): Sequential(
            (0): Conv2d(64, 64, kernel_size=(3, 3), stride=(1, 1), padding=(1, 1))
            (1): ReLU(inplace)
            (2): Conv2d(64, 64, kernel_size=(3, 3), stride=(1, 1), padding=(1, 1))
            (3): CALayer(
              (avg_pool): AdaptiveAvgPool2d(output_size=1)
              (conv_du): Sequential(
                (0): Conv2d(64, 4, kernel_size=(1, 1), stride=(1, 1))
                (1): ReLU(inplace)
                (2): Conv2d(4, 64, kernel_size=(1, 1), stride=(1, 1))
                (3): Sigmoid()
              )
            )
          )
        )
        (2): RCAB(
          (body): Sequential(
            (0): Conv2d(64, 64, kernel_size=(3, 3), stride=(1, 1), padding=(1, 1))
            (1): ReLU(inplace)
            (2): Conv2d(64, 64, kernel_size=(3, 3), stride=(1, 1), padding=(1, 1))
            (3): CALayer(
              (avg_pool): AdaptiveAvgPool2d(output_size=1)
              (conv_du): Sequential(
                (0): Conv2d(64, 4, kernel_size=(1, 1), stride=(1, 1))
                (1): ReLU(inplace)
                (2): Conv2d(4, 64, kernel_size=(1, 1), stride=(1, 1))
                (3): Sigmoid()
              )
            )
          )
        )
        (3): RCAB(
          (body): Sequential(
            (0): Conv2d(64, 64, kernel_size=(3, 3), stride=(1, 1), padding=(1, 1))
            (1): ReLU(inplace)
            (2): Conv2d(64, 64, kernel_size=(3, 3), stride=(1, 1), padding=(1, 1))
            (3): CALayer(
              (avg_pool): AdaptiveAvgPool2d(output_size=1)
              (conv_du): Sequential(
                (0): Conv2d(64, 4, kernel_size=(1, 1), stride=(1, 1))
                (1): ReLU(inplace)
                (2): Conv2d(4, 64, kernel_size=(1, 1), stride=(1, 1))
                (3): Sigmoid()
              )
            )
          )
        )
        (4): RCAB(
          (body): Sequential(
            (0): Conv2d(64, 64, kernel_size=(3, 3), stride=(1, 1), padding=(1, 1))
            (1): ReLU(inplace)
            (2): Conv2d(64, 64, kernel_size=(3, 3), stride=(1, 1), padding=(1, 1))
            (3): CALayer(
              (avg_pool): AdaptiveAvgPool2d(output_size=1)
              (conv_du): Sequential(
                (0): Conv2d(64, 4, kernel_size=(1, 1), stride=(1, 1))
                (1): ReLU(inplace)
                (2): Conv2d(4, 64, kernel_size=(1, 1), stride=(1, 1))
                (3): Sigmoid()
              )
            )
          )
        )
        (5): RCAB(
          (body): Sequential(
            (0): Conv2d(64, 64, kernel_size=(3, 3), stride=(1, 1), padding=(1, 1))
            (1): ReLU(inplace)
            (2): Conv2d(64, 64, kernel_size=(3, 3), stride=(1, 1), padding=(1, 1))
            (3): CALayer(
              (avg_pool): AdaptiveAvgPool2d(output_size=1)
              (conv_du): Sequential(
                (0): Conv2d(64, 4, kernel_size=(1, 1), stride=(1, 1))
                (1): ReLU(inplace)
                (2): Conv2d(4, 64, kernel_size=(1, 1), stride=(1, 1))
                (3): Sigmoid()
              )
            )
          )
        )
        (6): RCAB(
          (body): Sequential(
            (0): Conv2d(64, 64, kernel_size=(3, 3), stride=(1, 1), padding=(1, 1))
            (1): ReLU(inplace)
            (2): Conv2d(64, 64, kernel_size=(3, 3), stride=(1, 1), padding=(1, 1))
            (3): CALayer(
              (avg_pool): AdaptiveAvgPool2d(output_size=1)
              (conv_du): Sequential(
                (0): Conv2d(64, 4, kernel_size=(1, 1), stride=(1, 1))
                (1): ReLU(inplace)
                (2): Conv2d(4, 64, kernel_size=(1, 1), stride=(1, 1))
                (3): Sigmoid()
              )
            )
          )
        )
        (7): RCAB(
          (body): Sequential(
            (0): Conv2d(64, 64, kernel_size=(3, 3), stride=(1, 1), padding=(1, 1))
            (1): ReLU(inplace)
            (2): Conv2d(64, 64, kernel_size=(3, 3), stride=(1, 1), padding=(1, 1))
            (3): CALayer(
              (avg_pool): AdaptiveAvgPool2d(output_size=1)
              (conv_du): Sequential(
                (0): Conv2d(64, 4, kernel_size=(1, 1), stride=(1, 1))
                (1): ReLU(inplace)
                (2): Conv2d(4, 64, kernel_size=(1, 1), stride=(1, 1))
                (3): Sigmoid()
              )
            )
          )
        )
        (8): RCAB(
          (body): Sequential(
            (0): Conv2d(64, 64, kernel_size=(3, 3), stride=(1, 1), padding=(1, 1))
            (1): ReLU(inplace)
            (2): Conv2d(64, 64, kernel_size=(3, 3), stride=(1, 1), padding=(1, 1))
            (3): CALayer(
              (avg_pool): AdaptiveAvgPool2d(output_size=1)
              (conv_du): Sequential(
                (0): Conv2d(64, 4, kernel_size=(1, 1), stride=(1, 1))
                (1): ReLU(inplace)
                (2): Conv2d(4, 64, kernel_size=(1, 1), stride=(1, 1))
                (3): Sigmoid()
              )
            )
          )
        )
        (9): RCAB(
          (body): Sequential(
            (0): Conv2d(64, 64, kernel_size=(3, 3), stride=(1, 1), padding=(1, 1))
            (1): ReLU(inplace)
            (2): Conv2d(64, 64, kernel_size=(3, 3), stride=(1, 1), padding=(1, 1))
            (3): CALayer(
              (avg_pool): AdaptiveAvgPool2d(output_size=1)
              (conv_du): Sequential(
                (0): Conv2d(64, 4, kernel_size=(1, 1), stride=(1, 1))
                (1): ReLU(inplace)
                (2): Conv2d(4, 64, kernel_size=(1, 1), stride=(1, 1))
                (3): Sigmoid()
              )
            )
          )
        )
        (10): RCAB(
          (body): Sequential(
            (0): Conv2d(64, 64, kernel_size=(3, 3), stride=(1, 1), padding=(1, 1))
            (1): ReLU(inplace)
            (2): Conv2d(64, 64, kernel_size=(3, 3), stride=(1, 1), padding=(1, 1))
            (3): CALayer(
              (avg_pool): AdaptiveAvgPool2d(output_size=1)
              (conv_du): Sequential(
                (0): Conv2d(64, 4, kernel_size=(1, 1), stride=(1, 1))
                (1): ReLU(inplace)
                (2): Conv2d(4, 64, kernel_size=(1, 1), stride=(1, 1))
                (3): Sigmoid()
              )
            )
          )
        )
        (11): RCAB(
          (body): Sequential(
            (0): Conv2d(64, 64, kernel_size=(3, 3), stride=(1, 1), padding=(1, 1))
            (1): ReLU(inplace)
            (2): Conv2d(64, 64, kernel_size=(3, 3), stride=(1, 1), padding=(1, 1))
            (3): CALayer(
              (avg_pool): AdaptiveAvgPool2d(output_size=1)
              (conv_du): Sequential(
                (0): Conv2d(64, 4, kernel_size=(1, 1), stride=(1, 1))
                (1): ReLU(inplace)
                (2): Conv2d(4, 64, kernel_size=(1, 1), stride=(1, 1))
                (3): Sigmoid()
              )
            )
          )
        )
        (12): RCAB(
          (body): Sequential(
            (0): Conv2d(64, 64, kernel_size=(3, 3), stride=(1, 1), padding=(1, 1))
            (1): ReLU(inplace)
            (2): Conv2d(64, 64, kernel_size=(3, 3), stride=(1, 1), padding=(1, 1))
            (3): CALayer(
              (avg_pool): AdaptiveAvgPool2d(output_size=1)
              (conv_du): Sequential(
                (0): Conv2d(64, 4, kernel_size=(1, 1), stride=(1, 1))
                (1): ReLU(inplace)
                (2): Conv2d(4, 64, kernel_size=(1, 1), stride=(1, 1))
                (3): Sigmoid()
              )
            )
          )
        )
        (13): RCAB(
          (body): Sequential(
            (0): Conv2d(64, 64, kernel_size=(3, 3), stride=(1, 1), padding=(1, 1))
            (1): ReLU(inplace)
            (2): Conv2d(64, 64, kernel_size=(3, 3), stride=(1, 1), padding=(1, 1))
            (3): CALayer(
              (avg_pool): AdaptiveAvgPool2d(output_size=1)
              (conv_du): Sequential(
                (0): Conv2d(64, 4, kernel_size=(1, 1), stride=(1, 1))
                (1): ReLU(inplace)
                (2): Conv2d(4, 64, kernel_size=(1, 1), stride=(1, 1))
                (3): Sigmoid()
              )
            )
          )
        )
        (14): RCAB(
          (body): Sequential(
            (0): Conv2d(64, 64, kernel_size=(3, 3), stride=(1, 1), padding=(1, 1))
            (1): ReLU(inplace)
            (2): Conv2d(64, 64, kernel_size=(3, 3), stride=(1, 1), padding=(1, 1))
            (3): CALayer(
              (avg_pool): AdaptiveAvgPool2d(output_size=1)
              (conv_du): Sequential(
                (0): Conv2d(64, 4, kernel_size=(1, 1), stride=(1, 1))
                (1): ReLU(inplace)
                (2): Conv2d(4, 64, kernel_size=(1, 1), stride=(1, 1))
                (3): Sigmoid()
              )
            )
          )
        )
        (15): RCAB(
          (body): Sequential(
            (0): Conv2d(64, 64, kernel_size=(3, 3), stride=(1, 1), padding=(1, 1))
            (1): ReLU(inplace)
            (2): Conv2d(64, 64, kernel_size=(3, 3), stride=(1, 1), padding=(1, 1))
            (3): CALayer(
              (avg_pool): AdaptiveAvgPool2d(output_size=1)
              (conv_du): Sequential(
                (0): Conv2d(64, 4, kernel_size=(1, 1), stride=(1, 1))
                (1): ReLU(inplace)
                (2): Conv2d(4, 64, kernel_size=(1, 1), stride=(1, 1))
                (3): Sigmoid()
              )
            )
          )
        )
        (16): Conv2d(64, 64, kernel_size=(3, 3), stride=(1, 1), padding=(1, 1))
      )
    )
    (1): ResidualGroup(
      (body): Sequential(
        (0): RCAB(
          (body): Sequential(
            (0): Conv2d(64, 64, kernel_size=(3, 3), stride=(1, 1), padding=(1, 1))
            (1): ReLU(inplace)
            (2): Conv2d(64, 64, kernel_size=(3, 3), stride=(1, 1), padding=(1, 1))
            (3): CALayer(
              (avg_pool): AdaptiveAvgPool2d(output_size=1)
              (conv_du): Sequential(
                (0): Conv2d(64, 4, kernel_size=(1, 1), stride=(1, 1))
                (1): ReLU(inplace)
                (2): Conv2d(4, 64, kernel_size=(1, 1), stride=(1, 1))
                (3): Sigmoid()
              )
            )
          )
        )
        (1): RCAB(
          (body): Sequential(
            (0): Conv2d(64, 64, kernel_size=(3, 3), stride=(1, 1), padding=(1, 1))
            (1): ReLU(inplace)
            (2): Conv2d(64, 64, kernel_size=(3, 3), stride=(1, 1), padding=(1, 1))
            (3): CALayer(
              (avg_pool): AdaptiveAvgPool2d(output_size=1)
              (conv_du): Sequential(
                (0): Conv2d(64, 4, kernel_size=(1, 1), stride=(1, 1))
                (1): ReLU(inplace)
                (2): Conv2d(4, 64, kernel_size=(1, 1), stride=(1, 1))
                (3): Sigmoid()
              )
            )
          )
        )
        (2): RCAB(
          (body): Sequential(
            (0): Conv2d(64, 64, kernel_size=(3, 3), stride=(1, 1), padding=(1, 1))
            (1): ReLU(inplace)
            (2): Conv2d(64, 64, kernel_size=(3, 3), stride=(1, 1), padding=(1, 1))
            (3): CALayer(
              (avg_pool): AdaptiveAvgPool2d(output_size=1)
              (conv_du): Sequential(
                (0): Conv2d(64, 4, kernel_size=(1, 1), stride=(1, 1))
                (1): ReLU(inplace)
                (2): Conv2d(4, 64, kernel_size=(1, 1), stride=(1, 1))
                (3): Sigmoid()
              )
            )
          )
        )
        (3): RCAB(
          (body): Sequential(
            (0): Conv2d(64, 64, kernel_size=(3, 3), stride=(1, 1), padding=(1, 1))
            (1): ReLU(inplace)
            (2): Conv2d(64, 64, kernel_size=(3, 3), stride=(1, 1), padding=(1, 1))
            (3): CALayer(
              (avg_pool): AdaptiveAvgPool2d(output_size=1)
              (conv_du): Sequential(
                (0): Conv2d(64, 4, kernel_size=(1, 1), stride=(1, 1))
                (1): ReLU(inplace)
                (2): Conv2d(4, 64, kernel_size=(1, 1), stride=(1, 1))
                (3): Sigmoid()
              )
            )
          )
        )
        (4): RCAB(
          (body): Sequential(
            (0): Conv2d(64, 64, kernel_size=(3, 3), stride=(1, 1), padding=(1, 1))
            (1): ReLU(inplace)
            (2): Conv2d(64, 64, kernel_size=(3, 3), stride=(1, 1), padding=(1, 1))
            (3): CALayer(
              (avg_pool): AdaptiveAvgPool2d(output_size=1)
              (conv_du): Sequential(
                (0): Conv2d(64, 4, kernel_size=(1, 1), stride=(1, 1))
                (1): ReLU(inplace)
                (2): Conv2d(4, 64, kernel_size=(1, 1), stride=(1, 1))
                (3): Sigmoid()
              )
            )
          )
        )
        (5): RCAB(
          (body): Sequential(
            (0): Conv2d(64, 64, kernel_size=(3, 3), stride=(1, 1), padding=(1, 1))
            (1): ReLU(inplace)
            (2): Conv2d(64, 64, kernel_size=(3, 3), stride=(1, 1), padding=(1, 1))
            (3): CALayer(
              (avg_pool): AdaptiveAvgPool2d(output_size=1)
              (conv_du): Sequential(
                (0): Conv2d(64, 4, kernel_size=(1, 1), stride=(1, 1))
                (1): ReLU(inplace)
                (2): Conv2d(4, 64, kernel_size=(1, 1), stride=(1, 1))
                (3): Sigmoid()
              )
            )
          )
        )
        (6): RCAB(
          (body): Sequential(
            (0): Conv2d(64, 64, kernel_size=(3, 3), stride=(1, 1), padding=(1, 1))
            (1): ReLU(inplace)
            (2): Conv2d(64, 64, kernel_size=(3, 3), stride=(1, 1), padding=(1, 1))
            (3): CALayer(
              (avg_pool): AdaptiveAvgPool2d(output_size=1)
              (conv_du): Sequential(
                (0): Conv2d(64, 4, kernel_size=(1, 1), stride=(1, 1))
                (1): ReLU(inplace)
                (2): Conv2d(4, 64, kernel_size=(1, 1), stride=(1, 1))
                (3): Sigmoid()
              )
            )
          )
        )
        (7): RCAB(
          (body): Sequential(
            (0): Conv2d(64, 64, kernel_size=(3, 3), stride=(1, 1), padding=(1, 1))
            (1): ReLU(inplace)
            (2): Conv2d(64, 64, kernel_size=(3, 3), stride=(1, 1), padding=(1, 1))
            (3): CALayer(
              (avg_pool): AdaptiveAvgPool2d(output_size=1)
              (conv_du): Sequential(
                (0): Conv2d(64, 4, kernel_size=(1, 1), stride=(1, 1))
                (1): ReLU(inplace)
                (2): Conv2d(4, 64, kernel_size=(1, 1), stride=(1, 1))
                (3): Sigmoid()
              )
            )
          )
        )
        (8): RCAB(
          (body): Sequential(
            (0): Conv2d(64, 64, kernel_size=(3, 3), stride=(1, 1), padding=(1, 1))
            (1): ReLU(inplace)
            (2): Conv2d(64, 64, kernel_size=(3, 3), stride=(1, 1), padding=(1, 1))
            (3): CALayer(
              (avg_pool): AdaptiveAvgPool2d(output_size=1)
              (conv_du): Sequential(
                (0): Conv2d(64, 4, kernel_size=(1, 1), stride=(1, 1))
                (1): ReLU(inplace)
                (2): Conv2d(4, 64, kernel_size=(1, 1), stride=(1, 1))
                (3): Sigmoid()
              )
            )
          )
        )
        (9): RCAB(
          (body): Sequential(
            (0): Conv2d(64, 64, kernel_size=(3, 3), stride=(1, 1), padding=(1, 1))
            (1): ReLU(inplace)
            (2): Conv2d(64, 64, kernel_size=(3, 3), stride=(1, 1), padding=(1, 1))
            (3): CALayer(
              (avg_pool): AdaptiveAvgPool2d(output_size=1)
              (conv_du): Sequential(
                (0): Conv2d(64, 4, kernel_size=(1, 1), stride=(1, 1))
                (1): ReLU(inplace)
                (2): Conv2d(4, 64, kernel_size=(1, 1), stride=(1, 1))
                (3): Sigmoid()
              )
            )
          )
        )
        (10): RCAB(
          (body): Sequential(
            (0): Conv2d(64, 64, kernel_size=(3, 3), stride=(1, 1), padding=(1, 1))
            (1): ReLU(inplace)
            (2): Conv2d(64, 64, kernel_size=(3, 3), stride=(1, 1), padding=(1, 1))
            (3): CALayer(
              (avg_pool): AdaptiveAvgPool2d(output_size=1)
              (conv_du): Sequential(
                (0): Conv2d(64, 4, kernel_size=(1, 1), stride=(1, 1))
                (1): ReLU(inplace)
                (2): Conv2d(4, 64, kernel_size=(1, 1), stride=(1, 1))
                (3): Sigmoid()
              )
            )
          )
        )
        (11): RCAB(
          (body): Sequential(
            (0): Conv2d(64, 64, kernel_size=(3, 3), stride=(1, 1), padding=(1, 1))
            (1): ReLU(inplace)
            (2): Conv2d(64, 64, kernel_size=(3, 3), stride=(1, 1), padding=(1, 1))
            (3): CALayer(
              (avg_pool): AdaptiveAvgPool2d(output_size=1)
              (conv_du): Sequential(
                (0): Conv2d(64, 4, kernel_size=(1, 1), stride=(1, 1))
                (1): ReLU(inplace)
                (2): Conv2d(4, 64, kernel_size=(1, 1), stride=(1, 1))
                (3): Sigmoid()
              )
            )
          )
        )
        (12): RCAB(
          (body): Sequential(
            (0): Conv2d(64, 64, kernel_size=(3, 3), stride=(1, 1), padding=(1, 1))
            (1): ReLU(inplace)
            (2): Conv2d(64, 64, kernel_size=(3, 3), stride=(1, 1), padding=(1, 1))
            (3): CALayer(
              (avg_pool): AdaptiveAvgPool2d(output_size=1)
              (conv_du): Sequential(
                (0): Conv2d(64, 4, kernel_size=(1, 1), stride=(1, 1))
                (1): ReLU(inplace)
                (2): Conv2d(4, 64, kernel_size=(1, 1), stride=(1, 1))
                (3): Sigmoid()
              )
            )
          )
        )
        (13): RCAB(
          (body): Sequential(
            (0): Conv2d(64, 64, kernel_size=(3, 3), stride=(1, 1), padding=(1, 1))
            (1): ReLU(inplace)
            (2): Conv2d(64, 64, kernel_size=(3, 3), stride=(1, 1), padding=(1, 1))
            (3): CALayer(
              (avg_pool): AdaptiveAvgPool2d(output_size=1)
              (conv_du): Sequential(
                (0): Conv2d(64, 4, kernel_size=(1, 1), stride=(1, 1))
                (1): ReLU(inplace)
                (2): Conv2d(4, 64, kernel_size=(1, 1), stride=(1, 1))
                (3): Sigmoid()
              )
            )
          )
        )
        (14): RCAB(
          (body): Sequential(
            (0): Conv2d(64, 64, kernel_size=(3, 3), stride=(1, 1), padding=(1, 1))
            (1): ReLU(inplace)
            (2): Conv2d(64, 64, kernel_size=(3, 3), stride=(1, 1), padding=(1, 1))
            (3): CALayer(
              (avg_pool): AdaptiveAvgPool2d(output_size=1)
              (conv_du): Sequential(
                (0): Conv2d(64, 4, kernel_size=(1, 1), stride=(1, 1))
                (1): ReLU(inplace)
                (2): Conv2d(4, 64, kernel_size=(1, 1), stride=(1, 1))
                (3): Sigmoid()
              )
            )
          )
        )
        (15): RCAB(
          (body): Sequential(
            (0): Conv2d(64, 64, kernel_size=(3, 3), stride=(1, 1), padding=(1, 1))
            (1): ReLU(inplace)
            (2): Conv2d(64, 64, kernel_size=(3, 3), stride=(1, 1), padding=(1, 1))
            (3): CALayer(
              (avg_pool): AdaptiveAvgPool2d(output_size=1)
              (conv_du): Sequential(
                (0): Conv2d(64, 4, kernel_size=(1, 1), stride=(1, 1))
                (1): ReLU(inplace)
                (2): Conv2d(4, 64, kernel_size=(1, 1), stride=(1, 1))
                (3): Sigmoid()
              )
            )
          )
        )
        (16): Conv2d(64, 64, kernel_size=(3, 3), stride=(1, 1), padding=(1, 1))
      )
    )
    (2): ResidualGroup(
      (body): Sequential(
        (0): RCAB(
          (body): Sequential(
            (0): Conv2d(64, 64, kernel_size=(3, 3), stride=(1, 1), padding=(1, 1))
            (1): ReLU(inplace)
            (2): Conv2d(64, 64, kernel_size=(3, 3), stride=(1, 1), padding=(1, 1))
            (3): CALayer(
              (avg_pool): AdaptiveAvgPool2d(output_size=1)
              (conv_du): Sequential(
                (0): Conv2d(64, 4, kernel_size=(1, 1), stride=(1, 1))
                (1): ReLU(inplace)
                (2): Conv2d(4, 64, kernel_size=(1, 1), stride=(1, 1))
                (3): Sigmoid()
              )
            )
          )
        )
        (1): RCAB(
          (body): Sequential(
            (0): Conv2d(64, 64, kernel_size=(3, 3), stride=(1, 1), padding=(1, 1))
            (1): ReLU(inplace)
            (2): Conv2d(64, 64, kernel_size=(3, 3), stride=(1, 1), padding=(1, 1))
            (3): CALayer(
              (avg_pool): AdaptiveAvgPool2d(output_size=1)
              (conv_du): Sequential(
                (0): Conv2d(64, 4, kernel_size=(1, 1), stride=(1, 1))
                (1): ReLU(inplace)
                (2): Conv2d(4, 64, kernel_size=(1, 1), stride=(1, 1))
                (3): Sigmoid()
              )
            )
          )
        )
        (2): RCAB(
          (body): Sequential(
            (0): Conv2d(64, 64, kernel_size=(3, 3), stride=(1, 1), padding=(1, 1))
            (1): ReLU(inplace)
            (2): Conv2d(64, 64, kernel_size=(3, 3), stride=(1, 1), padding=(1, 1))
            (3): CALayer(
              (avg_pool): AdaptiveAvgPool2d(output_size=1)
              (conv_du): Sequential(
                (0): Conv2d(64, 4, kernel_size=(1, 1), stride=(1, 1))
                (1): ReLU(inplace)
                (2): Conv2d(4, 64, kernel_size=(1, 1), stride=(1, 1))
                (3): Sigmoid()
              )
            )
          )
        )
        (3): RCAB(
          (body): Sequential(
            (0): Conv2d(64, 64, kernel_size=(3, 3), stride=(1, 1), padding=(1, 1))
            (1): ReLU(inplace)
            (2): Conv2d(64, 64, kernel_size=(3, 3), stride=(1, 1), padding=(1, 1))
            (3): CALayer(
              (avg_pool): AdaptiveAvgPool2d(output_size=1)
              (conv_du): Sequential(
                (0): Conv2d(64, 4, kernel_size=(1, 1), stride=(1, 1))
                (1): ReLU(inplace)
                (2): Conv2d(4, 64, kernel_size=(1, 1), stride=(1, 1))
                (3): Sigmoid()
              )
            )
          )
        )
        (4): RCAB(
          (body): Sequential(
            (0): Conv2d(64, 64, kernel_size=(3, 3), stride=(1, 1), padding=(1, 1))
            (1): ReLU(inplace)
            (2): Conv2d(64, 64, kernel_size=(3, 3), stride=(1, 1), padding=(1, 1))
            (3): CALayer(
              (avg_pool): AdaptiveAvgPool2d(output_size=1)
              (conv_du): Sequential(
                (0): Conv2d(64, 4, kernel_size=(1, 1), stride=(1, 1))
                (1): ReLU(inplace)
                (2): Conv2d(4, 64, kernel_size=(1, 1), stride=(1, 1))
                (3): Sigmoid()
              )
            )
          )
        )
        (5): RCAB(
          (body): Sequential(
            (0): Conv2d(64, 64, kernel_size=(3, 3), stride=(1, 1), padding=(1, 1))
            (1): ReLU(inplace)
            (2): Conv2d(64, 64, kernel_size=(3, 3), stride=(1, 1), padding=(1, 1))
            (3): CALayer(
              (avg_pool): AdaptiveAvgPool2d(output_size=1)
              (conv_du): Sequential(
                (0): Conv2d(64, 4, kernel_size=(1, 1), stride=(1, 1))
                (1): ReLU(inplace)
                (2): Conv2d(4, 64, kernel_size=(1, 1), stride=(1, 1))
                (3): Sigmoid()
              )
            )
          )
        )
        (6): RCAB(
          (body): Sequential(
            (0): Conv2d(64, 64, kernel_size=(3, 3), stride=(1, 1), padding=(1, 1))
            (1): ReLU(inplace)
            (2): Conv2d(64, 64, kernel_size=(3, 3), stride=(1, 1), padding=(1, 1))
            (3): CALayer(
              (avg_pool): AdaptiveAvgPool2d(output_size=1)
              (conv_du): Sequential(
                (0): Conv2d(64, 4, kernel_size=(1, 1), stride=(1, 1))
                (1): ReLU(inplace)
                (2): Conv2d(4, 64, kernel_size=(1, 1), stride=(1, 1))
                (3): Sigmoid()
              )
            )
          )
        )
        (7): RCAB(
          (body): Sequential(
            (0): Conv2d(64, 64, kernel_size=(3, 3), stride=(1, 1), padding=(1, 1))
            (1): ReLU(inplace)
            (2): Conv2d(64, 64, kernel_size=(3, 3), stride=(1, 1), padding=(1, 1))
            (3): CALayer(
              (avg_pool): AdaptiveAvgPool2d(output_size=1)
              (conv_du): Sequential(
                (0): Conv2d(64, 4, kernel_size=(1, 1), stride=(1, 1))
                (1): ReLU(inplace)
                (2): Conv2d(4, 64, kernel_size=(1, 1), stride=(1, 1))
                (3): Sigmoid()
              )
            )
          )
        )
        (8): RCAB(
          (body): Sequential(
            (0): Conv2d(64, 64, kernel_size=(3, 3), stride=(1, 1), padding=(1, 1))
            (1): ReLU(inplace)
            (2): Conv2d(64, 64, kernel_size=(3, 3), stride=(1, 1), padding=(1, 1))
            (3): CALayer(
              (avg_pool): AdaptiveAvgPool2d(output_size=1)
              (conv_du): Sequential(
                (0): Conv2d(64, 4, kernel_size=(1, 1), stride=(1, 1))
                (1): ReLU(inplace)
                (2): Conv2d(4, 64, kernel_size=(1, 1), stride=(1, 1))
                (3): Sigmoid()
              )
            )
          )
        )
        (9): RCAB(
          (body): Sequential(
            (0): Conv2d(64, 64, kernel_size=(3, 3), stride=(1, 1), padding=(1, 1))
            (1): ReLU(inplace)
            (2): Conv2d(64, 64, kernel_size=(3, 3), stride=(1, 1), padding=(1, 1))
            (3): CALayer(
              (avg_pool): AdaptiveAvgPool2d(output_size=1)
              (conv_du): Sequential(
                (0): Conv2d(64, 4, kernel_size=(1, 1), stride=(1, 1))
                (1): ReLU(inplace)
                (2): Conv2d(4, 64, kernel_size=(1, 1), stride=(1, 1))
                (3): Sigmoid()
              )
            )
          )
        )
        (10): RCAB(
          (body): Sequential(
            (0): Conv2d(64, 64, kernel_size=(3, 3), stride=(1, 1), padding=(1, 1))
            (1): ReLU(inplace)
            (2): Conv2d(64, 64, kernel_size=(3, 3), stride=(1, 1), padding=(1, 1))
            (3): CALayer(
              (avg_pool): AdaptiveAvgPool2d(output_size=1)
              (conv_du): Sequential(
                (0): Conv2d(64, 4, kernel_size=(1, 1), stride=(1, 1))
                (1): ReLU(inplace)
                (2): Conv2d(4, 64, kernel_size=(1, 1), stride=(1, 1))
                (3): Sigmoid()
              )
            )
          )
        )
        (11): RCAB(
          (body): Sequential(
            (0): Conv2d(64, 64, kernel_size=(3, 3), stride=(1, 1), padding=(1, 1))
            (1): ReLU(inplace)
            (2): Conv2d(64, 64, kernel_size=(3, 3), stride=(1, 1), padding=(1, 1))
            (3): CALayer(
              (avg_pool): AdaptiveAvgPool2d(output_size=1)
              (conv_du): Sequential(
                (0): Conv2d(64, 4, kernel_size=(1, 1), stride=(1, 1))
                (1): ReLU(inplace)
                (2): Conv2d(4, 64, kernel_size=(1, 1), stride=(1, 1))
                (3): Sigmoid()
              )
            )
          )
        )
        (12): RCAB(
          (body): Sequential(
            (0): Conv2d(64, 64, kernel_size=(3, 3), stride=(1, 1), padding=(1, 1))
            (1): ReLU(inplace)
            (2): Conv2d(64, 64, kernel_size=(3, 3), stride=(1, 1), padding=(1, 1))
            (3): CALayer(
              (avg_pool): AdaptiveAvgPool2d(output_size=1)
              (conv_du): Sequential(
                (0): Conv2d(64, 4, kernel_size=(1, 1), stride=(1, 1))
                (1): ReLU(inplace)
                (2): Conv2d(4, 64, kernel_size=(1, 1), stride=(1, 1))
                (3): Sigmoid()
              )
            )
          )
        )
        (13): RCAB(
          (body): Sequential(
            (0): Conv2d(64, 64, kernel_size=(3, 3), stride=(1, 1), padding=(1, 1))
            (1): ReLU(inplace)
            (2): Conv2d(64, 64, kernel_size=(3, 3), stride=(1, 1), padding=(1, 1))
            (3): CALayer(
              (avg_pool): AdaptiveAvgPool2d(output_size=1)
              (conv_du): Sequential(
                (0): Conv2d(64, 4, kernel_size=(1, 1), stride=(1, 1))
                (1): ReLU(inplace)
                (2): Conv2d(4, 64, kernel_size=(1, 1), stride=(1, 1))
                (3): Sigmoid()
              )
            )
          )
        )
        (14): RCAB(
          (body): Sequential(
            (0): Conv2d(64, 64, kernel_size=(3, 3), stride=(1, 1), padding=(1, 1))
            (1): ReLU(inplace)
            (2): Conv2d(64, 64, kernel_size=(3, 3), stride=(1, 1), padding=(1, 1))
            (3): CALayer(
              (avg_pool): AdaptiveAvgPool2d(output_size=1)
              (conv_du): Sequential(
                (0): Conv2d(64, 4, kernel_size=(1, 1), stride=(1, 1))
                (1): ReLU(inplace)
                (2): Conv2d(4, 64, kernel_size=(1, 1), stride=(1, 1))
                (3): Sigmoid()
              )
            )
          )
        )
        (15): RCAB(
          (body): Sequential(
            (0): Conv2d(64, 64, kernel_size=(3, 3), stride=(1, 1), padding=(1, 1))
            (1): ReLU(inplace)
            (2): Conv2d(64, 64, kernel_size=(3, 3), stride=(1, 1), padding=(1, 1))
            (3): CALayer(
              (avg_pool): AdaptiveAvgPool2d(output_size=1)
              (conv_du): Sequential(
                (0): Conv2d(64, 4, kernel_size=(1, 1), stride=(1, 1))
                (1): ReLU(inplace)
                (2): Conv2d(4, 64, kernel_size=(1, 1), stride=(1, 1))
                (3): Sigmoid()
              )
            )
          )
        )
        (16): Conv2d(64, 64, kernel_size=(3, 3), stride=(1, 1), padding=(1, 1))
      )
    )
    (3): ResidualGroup(
      (body): Sequential(
        (0): RCAB(
          (body): Sequential(
            (0): Conv2d(64, 64, kernel_size=(3, 3), stride=(1, 1), padding=(1, 1))
            (1): ReLU(inplace)
            (2): Conv2d(64, 64, kernel_size=(3, 3), stride=(1, 1), padding=(1, 1))
            (3): CALayer(
              (avg_pool): AdaptiveAvgPool2d(output_size=1)
              (conv_du): Sequential(
                (0): Conv2d(64, 4, kernel_size=(1, 1), stride=(1, 1))
                (1): ReLU(inplace)
                (2): Conv2d(4, 64, kernel_size=(1, 1), stride=(1, 1))
                (3): Sigmoid()
              )
            )
          )
        )
        (1): RCAB(
          (body): Sequential(
            (0): Conv2d(64, 64, kernel_size=(3, 3), stride=(1, 1), padding=(1, 1))
            (1): ReLU(inplace)
            (2): Conv2d(64, 64, kernel_size=(3, 3), stride=(1, 1), padding=(1, 1))
            (3): CALayer(
              (avg_pool): AdaptiveAvgPool2d(output_size=1)
              (conv_du): Sequential(
                (0): Conv2d(64, 4, kernel_size=(1, 1), stride=(1, 1))
                (1): ReLU(inplace)
                (2): Conv2d(4, 64, kernel_size=(1, 1), stride=(1, 1))
                (3): Sigmoid()
              )
            )
          )
        )
        (2): RCAB(
          (body): Sequential(
            (0): Conv2d(64, 64, kernel_size=(3, 3), stride=(1, 1), padding=(1, 1))
            (1): ReLU(inplace)
            (2): Conv2d(64, 64, kernel_size=(3, 3), stride=(1, 1), padding=(1, 1))
            (3): CALayer(
              (avg_pool): AdaptiveAvgPool2d(output_size=1)
              (conv_du): Sequential(
                (0): Conv2d(64, 4, kernel_size=(1, 1), stride=(1, 1))
                (1): ReLU(inplace)
                (2): Conv2d(4, 64, kernel_size=(1, 1), stride=(1, 1))
                (3): Sigmoid()
              )
            )
          )
        )
        (3): RCAB(
          (body): Sequential(
            (0): Conv2d(64, 64, kernel_size=(3, 3), stride=(1, 1), padding=(1, 1))
            (1): ReLU(inplace)
            (2): Conv2d(64, 64, kernel_size=(3, 3), stride=(1, 1), padding=(1, 1))
            (3): CALayer(
              (avg_pool): AdaptiveAvgPool2d(output_size=1)
              (conv_du): Sequential(
                (0): Conv2d(64, 4, kernel_size=(1, 1), stride=(1, 1))
                (1): ReLU(inplace)
                (2): Conv2d(4, 64, kernel_size=(1, 1), stride=(1, 1))
                (3): Sigmoid()
              )
            )
          )
        )
        (4): RCAB(
          (body): Sequential(
            (0): Conv2d(64, 64, kernel_size=(3, 3), stride=(1, 1), padding=(1, 1))
            (1): ReLU(inplace)
            (2): Conv2d(64, 64, kernel_size=(3, 3), stride=(1, 1), padding=(1, 1))
            (3): CALayer(
              (avg_pool): AdaptiveAvgPool2d(output_size=1)
              (conv_du): Sequential(
                (0): Conv2d(64, 4, kernel_size=(1, 1), stride=(1, 1))
                (1): ReLU(inplace)
                (2): Conv2d(4, 64, kernel_size=(1, 1), stride=(1, 1))
                (3): Sigmoid()
              )
            )
          )
        )
        (5): RCAB(
          (body): Sequential(
            (0): Conv2d(64, 64, kernel_size=(3, 3), stride=(1, 1), padding=(1, 1))
            (1): ReLU(inplace)
            (2): Conv2d(64, 64, kernel_size=(3, 3), stride=(1, 1), padding=(1, 1))
            (3): CALayer(
              (avg_pool): AdaptiveAvgPool2d(output_size=1)
              (conv_du): Sequential(
                (0): Conv2d(64, 4, kernel_size=(1, 1), stride=(1, 1))
                (1): ReLU(inplace)
                (2): Conv2d(4, 64, kernel_size=(1, 1), stride=(1, 1))
                (3): Sigmoid()
              )
            )
          )
        )
        (6): RCAB(
          (body): Sequential(
            (0): Conv2d(64, 64, kernel_size=(3, 3), stride=(1, 1), padding=(1, 1))
            (1): ReLU(inplace)
            (2): Conv2d(64, 64, kernel_size=(3, 3), stride=(1, 1), padding=(1, 1))
            (3): CALayer(
              (avg_pool): AdaptiveAvgPool2d(output_size=1)
              (conv_du): Sequential(
                (0): Conv2d(64, 4, kernel_size=(1, 1), stride=(1, 1))
                (1): ReLU(inplace)
                (2): Conv2d(4, 64, kernel_size=(1, 1), stride=(1, 1))
                (3): Sigmoid()
              )
            )
          )
        )
        (7): RCAB(
          (body): Sequential(
            (0): Conv2d(64, 64, kernel_size=(3, 3), stride=(1, 1), padding=(1, 1))
            (1): ReLU(inplace)
            (2): Conv2d(64, 64, kernel_size=(3, 3), stride=(1, 1), padding=(1, 1))
            (3): CALayer(
              (avg_pool): AdaptiveAvgPool2d(output_size=1)
              (conv_du): Sequential(
                (0): Conv2d(64, 4, kernel_size=(1, 1), stride=(1, 1))
                (1): ReLU(inplace)
                (2): Conv2d(4, 64, kernel_size=(1, 1), stride=(1, 1))
                (3): Sigmoid()
              )
            )
          )
        )
        (8): RCAB(
          (body): Sequential(
            (0): Conv2d(64, 64, kernel_size=(3, 3), stride=(1, 1), padding=(1, 1))
            (1): ReLU(inplace)
            (2): Conv2d(64, 64, kernel_size=(3, 3), stride=(1, 1), padding=(1, 1))
            (3): CALayer(
              (avg_pool): AdaptiveAvgPool2d(output_size=1)
              (conv_du): Sequential(
                (0): Conv2d(64, 4, kernel_size=(1, 1), stride=(1, 1))
                (1): ReLU(inplace)
                (2): Conv2d(4, 64, kernel_size=(1, 1), stride=(1, 1))
                (3): Sigmoid()
              )
            )
          )
        )
        (9): RCAB(
          (body): Sequential(
            (0): Conv2d(64, 64, kernel_size=(3, 3), stride=(1, 1), padding=(1, 1))
            (1): ReLU(inplace)
            (2): Conv2d(64, 64, kernel_size=(3, 3), stride=(1, 1), padding=(1, 1))
            (3): CALayer(
              (avg_pool): AdaptiveAvgPool2d(output_size=1)
              (conv_du): Sequential(
                (0): Conv2d(64, 4, kernel_size=(1, 1), stride=(1, 1))
                (1): ReLU(inplace)
                (2): Conv2d(4, 64, kernel_size=(1, 1), stride=(1, 1))
                (3): Sigmoid()
              )
            )
          )
        )
        (10): RCAB(
          (body): Sequential(
            (0): Conv2d(64, 64, kernel_size=(3, 3), stride=(1, 1), padding=(1, 1))
            (1): ReLU(inplace)
            (2): Conv2d(64, 64, kernel_size=(3, 3), stride=(1, 1), padding=(1, 1))
            (3): CALayer(
              (avg_pool): AdaptiveAvgPool2d(output_size=1)
              (conv_du): Sequential(
                (0): Conv2d(64, 4, kernel_size=(1, 1), stride=(1, 1))
                (1): ReLU(inplace)
                (2): Conv2d(4, 64, kernel_size=(1, 1), stride=(1, 1))
                (3): Sigmoid()
              )
            )
          )
        )
        (11): RCAB(
          (body): Sequential(
            (0): Conv2d(64, 64, kernel_size=(3, 3), stride=(1, 1), padding=(1, 1))
            (1): ReLU(inplace)
            (2): Conv2d(64, 64, kernel_size=(3, 3), stride=(1, 1), padding=(1, 1))
            (3): CALayer(
              (avg_pool): AdaptiveAvgPool2d(output_size=1)
              (conv_du): Sequential(
                (0): Conv2d(64, 4, kernel_size=(1, 1), stride=(1, 1))
                (1): ReLU(inplace)
                (2): Conv2d(4, 64, kernel_size=(1, 1), stride=(1, 1))
                (3): Sigmoid()
              )
            )
          )
        )
        (12): RCAB(
          (body): Sequential(
            (0): Conv2d(64, 64, kernel_size=(3, 3), stride=(1, 1), padding=(1, 1))
            (1): ReLU(inplace)
            (2): Conv2d(64, 64, kernel_size=(3, 3), stride=(1, 1), padding=(1, 1))
            (3): CALayer(
              (avg_pool): AdaptiveAvgPool2d(output_size=1)
              (conv_du): Sequential(
                (0): Conv2d(64, 4, kernel_size=(1, 1), stride=(1, 1))
                (1): ReLU(inplace)
                (2): Conv2d(4, 64, kernel_size=(1, 1), stride=(1, 1))
                (3): Sigmoid()
              )
            )
          )
        )
        (13): RCAB(
          (body): Sequential(
            (0): Conv2d(64, 64, kernel_size=(3, 3), stride=(1, 1), padding=(1, 1))
            (1): ReLU(inplace)
            (2): Conv2d(64, 64, kernel_size=(3, 3), stride=(1, 1), padding=(1, 1))
            (3): CALayer(
              (avg_pool): AdaptiveAvgPool2d(output_size=1)
              (conv_du): Sequential(
                (0): Conv2d(64, 4, kernel_size=(1, 1), stride=(1, 1))
                (1): ReLU(inplace)
                (2): Conv2d(4, 64, kernel_size=(1, 1), stride=(1, 1))
                (3): Sigmoid()
              )
            )
          )
        )
        (14): RCAB(
          (body): Sequential(
            (0): Conv2d(64, 64, kernel_size=(3, 3), stride=(1, 1), padding=(1, 1))
            (1): ReLU(inplace)
            (2): Conv2d(64, 64, kernel_size=(3, 3), stride=(1, 1), padding=(1, 1))
            (3): CALayer(
              (avg_pool): AdaptiveAvgPool2d(output_size=1)
              (conv_du): Sequential(
                (0): Conv2d(64, 4, kernel_size=(1, 1), stride=(1, 1))
                (1): ReLU(inplace)
                (2): Conv2d(4, 64, kernel_size=(1, 1), stride=(1, 1))
                (3): Sigmoid()
              )
            )
          )
        )
        (15): RCAB(
          (body): Sequential(
            (0): Conv2d(64, 64, kernel_size=(3, 3), stride=(1, 1), padding=(1, 1))
            (1): ReLU(inplace)
            (2): Conv2d(64, 64, kernel_size=(3, 3), stride=(1, 1), padding=(1, 1))
            (3): CALayer(
              (avg_pool): AdaptiveAvgPool2d(output_size=1)
              (conv_du): Sequential(
                (0): Conv2d(64, 4, kernel_size=(1, 1), stride=(1, 1))
                (1): ReLU(inplace)
                (2): Conv2d(4, 64, kernel_size=(1, 1), stride=(1, 1))
                (3): Sigmoid()
              )
            )
          )
        )
        (16): Conv2d(64, 64, kernel_size=(3, 3), stride=(1, 1), padding=(1, 1))
      )
    )
    (4): ResidualGroup(
      (body): Sequential(
        (0): RCAB(
          (body): Sequential(
            (0): Conv2d(64, 64, kernel_size=(3, 3), stride=(1, 1), padding=(1, 1))
            (1): ReLU(inplace)
            (2): Conv2d(64, 64, kernel_size=(3, 3), stride=(1, 1), padding=(1, 1))
            (3): CALayer(
              (avg_pool): AdaptiveAvgPool2d(output_size=1)
              (conv_du): Sequential(
                (0): Conv2d(64, 4, kernel_size=(1, 1), stride=(1, 1))
                (1): ReLU(inplace)
                (2): Conv2d(4, 64, kernel_size=(1, 1), stride=(1, 1))
                (3): Sigmoid()
              )
            )
          )
        )
        (1): RCAB(
          (body): Sequential(
            (0): Conv2d(64, 64, kernel_size=(3, 3), stride=(1, 1), padding=(1, 1))
            (1): ReLU(inplace)
            (2): Conv2d(64, 64, kernel_size=(3, 3), stride=(1, 1), padding=(1, 1))
            (3): CALayer(
              (avg_pool): AdaptiveAvgPool2d(output_size=1)
              (conv_du): Sequential(
                (0): Conv2d(64, 4, kernel_size=(1, 1), stride=(1, 1))
                (1): ReLU(inplace)
                (2): Conv2d(4, 64, kernel_size=(1, 1), stride=(1, 1))
                (3): Sigmoid()
              )
            )
          )
        )
        (2): RCAB(
          (body): Sequential(
            (0): Conv2d(64, 64, kernel_size=(3, 3), stride=(1, 1), padding=(1, 1))
            (1): ReLU(inplace)
            (2): Conv2d(64, 64, kernel_size=(3, 3), stride=(1, 1), padding=(1, 1))
            (3): CALayer(
              (avg_pool): AdaptiveAvgPool2d(output_size=1)
              (conv_du): Sequential(
                (0): Conv2d(64, 4, kernel_size=(1, 1), stride=(1, 1))
                (1): ReLU(inplace)
                (2): Conv2d(4, 64, kernel_size=(1, 1), stride=(1, 1))
                (3): Sigmoid()
              )
            )
          )
        )
        (3): RCAB(
          (body): Sequential(
            (0): Conv2d(64, 64, kernel_size=(3, 3), stride=(1, 1), padding=(1, 1))
            (1): ReLU(inplace)
            (2): Conv2d(64, 64, kernel_size=(3, 3), stride=(1, 1), padding=(1, 1))
            (3): CALayer(
              (avg_pool): AdaptiveAvgPool2d(output_size=1)
              (conv_du): Sequential(
                (0): Conv2d(64, 4, kernel_size=(1, 1), stride=(1, 1))
                (1): ReLU(inplace)
                (2): Conv2d(4, 64, kernel_size=(1, 1), stride=(1, 1))
                (3): Sigmoid()
              )
            )
          )
        )
        (4): RCAB(
          (body): Sequential(
            (0): Conv2d(64, 64, kernel_size=(3, 3), stride=(1, 1), padding=(1, 1))
            (1): ReLU(inplace)
            (2): Conv2d(64, 64, kernel_size=(3, 3), stride=(1, 1), padding=(1, 1))
            (3): CALayer(
              (avg_pool): AdaptiveAvgPool2d(output_size=1)
              (conv_du): Sequential(
                (0): Conv2d(64, 4, kernel_size=(1, 1), stride=(1, 1))
                (1): ReLU(inplace)
                (2): Conv2d(4, 64, kernel_size=(1, 1), stride=(1, 1))
                (3): Sigmoid()
              )
            )
          )
        )
        (5): RCAB(
          (body): Sequential(
            (0): Conv2d(64, 64, kernel_size=(3, 3), stride=(1, 1), padding=(1, 1))
            (1): ReLU(inplace)
            (2): Conv2d(64, 64, kernel_size=(3, 3), stride=(1, 1), padding=(1, 1))
            (3): CALayer(
              (avg_pool): AdaptiveAvgPool2d(output_size=1)
              (conv_du): Sequential(
                (0): Conv2d(64, 4, kernel_size=(1, 1), stride=(1, 1))
                (1): ReLU(inplace)
                (2): Conv2d(4, 64, kernel_size=(1, 1), stride=(1, 1))
                (3): Sigmoid()
              )
            )
          )
        )
        (6): RCAB(
          (body): Sequential(
            (0): Conv2d(64, 64, kernel_size=(3, 3), stride=(1, 1), padding=(1, 1))
            (1): ReLU(inplace)
            (2): Conv2d(64, 64, kernel_size=(3, 3), stride=(1, 1), padding=(1, 1))
            (3): CALayer(
              (avg_pool): AdaptiveAvgPool2d(output_size=1)
              (conv_du): Sequential(
                (0): Conv2d(64, 4, kernel_size=(1, 1), stride=(1, 1))
                (1): ReLU(inplace)
                (2): Conv2d(4, 64, kernel_size=(1, 1), stride=(1, 1))
                (3): Sigmoid()
              )
            )
          )
        )
        (7): RCAB(
          (body): Sequential(
            (0): Conv2d(64, 64, kernel_size=(3, 3), stride=(1, 1), padding=(1, 1))
            (1): ReLU(inplace)
            (2): Conv2d(64, 64, kernel_size=(3, 3), stride=(1, 1), padding=(1, 1))
            (3): CALayer(
              (avg_pool): AdaptiveAvgPool2d(output_size=1)
              (conv_du): Sequential(
                (0): Conv2d(64, 4, kernel_size=(1, 1), stride=(1, 1))
                (1): ReLU(inplace)
                (2): Conv2d(4, 64, kernel_size=(1, 1), stride=(1, 1))
                (3): Sigmoid()
              )
            )
          )
        )
        (8): RCAB(
          (body): Sequential(
            (0): Conv2d(64, 64, kernel_size=(3, 3), stride=(1, 1), padding=(1, 1))
            (1): ReLU(inplace)
            (2): Conv2d(64, 64, kernel_size=(3, 3), stride=(1, 1), padding=(1, 1))
            (3): CALayer(
              (avg_pool): AdaptiveAvgPool2d(output_size=1)
              (conv_du): Sequential(
                (0): Conv2d(64, 4, kernel_size=(1, 1), stride=(1, 1))
                (1): ReLU(inplace)
                (2): Conv2d(4, 64, kernel_size=(1, 1), stride=(1, 1))
                (3): Sigmoid()
              )
            )
          )
        )
        (9): RCAB(
          (body): Sequential(
            (0): Conv2d(64, 64, kernel_size=(3, 3), stride=(1, 1), padding=(1, 1))
            (1): ReLU(inplace)
            (2): Conv2d(64, 64, kernel_size=(3, 3), stride=(1, 1), padding=(1, 1))
            (3): CALayer(
              (avg_pool): AdaptiveAvgPool2d(output_size=1)
              (conv_du): Sequential(
                (0): Conv2d(64, 4, kernel_size=(1, 1), stride=(1, 1))
                (1): ReLU(inplace)
                (2): Conv2d(4, 64, kernel_size=(1, 1), stride=(1, 1))
                (3): Sigmoid()
              )
            )
          )
        )
        (10): RCAB(
          (body): Sequential(
            (0): Conv2d(64, 64, kernel_size=(3, 3), stride=(1, 1), padding=(1, 1))
            (1): ReLU(inplace)
            (2): Conv2d(64, 64, kernel_size=(3, 3), stride=(1, 1), padding=(1, 1))
            (3): CALayer(
              (avg_pool): AdaptiveAvgPool2d(output_size=1)
              (conv_du): Sequential(
                (0): Conv2d(64, 4, kernel_size=(1, 1), stride=(1, 1))
                (1): ReLU(inplace)
…
                (3): Sigmoid()
              )
            )
          )
        )
        (2): RCAB(
          (body): Sequential(
            (0): Conv2d(64, 64, kernel_size=(3, 3), stride=(1, 1), padding=(1, 1))
            (1): ReLU(inplace)
            (2): Conv2d(64, 64, kernel_size=(3, 3), stride=(1, 1), padding=(1, 1))
            (3): CALayer(
              (avg_pool): AdaptiveAvgPool2d(output_size=1)
              (conv_du): Sequential(
                (0): Conv2d(64, 4, kernel_size=(1, 1), stride=(1, 1))
                (1): ReLU(inplace)
                (2): Conv2d(4, 64, kernel_size=(1, 1), stride=(1, 1))
                (3): Sigmoid()
              )
            )
          )
        )
        (3): RCAB(
          (body): Sequential(
            (0): Conv2d(64, 64, kernel_size=(3, 3), stride=(1, 1), padding=(1, 1))
            (1): ReLU(inplace)
            (2): Conv2d(64, 64, kernel_size=(3, 3), stride=(1, 1), padding=(1, 1))
            (3): CALayer(
              (avg_pool): AdaptiveAvgPool2d(output_size=1)
              (conv_du): Sequential(
                (0): Conv2d(64, 4, kernel_size=(1, 1), stride=(1, 1))
                (1): ReLU(inplace)
                (2): Conv2d(4, 64, kernel_size=(1, 1), stride=(1, 1))
                (3): Sigmoid()
              )
            )
          )
        )
        (4): RCAB(
          (body): Sequential(
            (0): Conv2d(64, 64, kernel_size=(3, 3), stride=(1, 1), padding=(1, 1))
            (1): ReLU(inplace)
            (2): Conv2d(64, 64, kernel_size=(3, 3), stride=(1, 1), padding=(1, 1))
            (3): CALayer(
              (avg_pool): AdaptiveAvgPool2d(output_size=1)
              (conv_du): Sequential(
                (0): Conv2d(64, 4, kernel_size=(1, 1), stride=(1, 1))
                (1): ReLU(inplace)
                (2): Conv2d(4, 64, kernel_size=(1, 1), stride=(1, 1))
                (3): Sigmoid()
              )
            )
          )
        )
        (5): RCAB(
          (body): Sequential(
            (0): Conv2d(64, 64, kernel_size=(3, 3), stride=(1, 1), padding=(1, 1))
            (1): ReLU(inplace)
            (2): Conv2d(64, 64, kernel_size=(3, 3), stride=(1, 1), padding=(1, 1))
            (3): CALayer(
              (avg_pool): AdaptiveAvgPool2d(output_size=1)
              (conv_du): Sequential(
                (0): Conv2d(64, 4, kernel_size=(1, 1), stride=(1, 1))
                (1): ReLU(inplace)
                (2): Conv2d(4, 64, kernel_size=(1, 1), stride=(1, 1))
                (3): Sigmoid()
              )
            )
          )
        )
        (6): RCAB(
          (body): Sequential(
            (0): Conv2d(64, 64, kernel_size=(3, 3), stride=(1, 1), padding=(1, 1))
            (1): ReLU(inplace)
            (2): Conv2d(64, 64, kernel_size=(3, 3), stride=(1, 1), padding=(1, 1))
            (3): CALayer(
              (avg_pool): AdaptiveAvgPool2d(output_size=1)
              (conv_du): Sequential(
                (0): Conv2d(64, 4, kernel_size=(1, 1), stride=(1, 1))
                (1): ReLU(inplace)
                (2): Conv2d(4, 64, kernel_size=(1, 1), stride=(1, 1))
                (3): Sigmoid()
              )
            )
          )
        )
        (7): RCAB(
          (body): Sequential(
            (0): Conv2d(64, 64, kernel_size=(3, 3), stride=(1, 1), padding=(1, 1))
            (1): ReLU(inplace)
            (2): Conv2d(64, 64, kernel_size=(3, 3), stride=(1, 1), padding=(1, 1))
            (3): CALayer(
              (avg_pool): AdaptiveAvgPool2d(output_size=1)
              (conv_du): Sequential(
                (0): Conv2d(64, 4, kernel_size=(1, 1), stride=(1, 1))
                (1): ReLU(inplace)
                (2): Conv2d(4, 64, kernel_size=(1, 1), stride=(1, 1))
                (3): Sigmoid()
              )
            )
          )
        )
        (8): RCAB(
          (body): Sequential(
            (0): Conv2d(64, 64, kernel_size=(3, 3), stride=(1, 1), padding=(1, 1))
            (1): ReLU(inplace)
            (2): Conv2d(64, 64, kernel_size=(3, 3), stride=(1, 1), padding=(1, 1))
            (3): CALayer(
              (avg_pool): AdaptiveAvgPool2d(output_size=1)
              (conv_du): Sequential(
                (0): Conv2d(64, 4, kernel_size=(1, 1), stride=(1, 1))
                (1): ReLU(inplace)
                (2): Conv2d(4, 64, kernel_size=(1, 1), stride=(1, 1))
                (3): Sigmoid()
              )
            )
          )
        )
        (9): RCAB(
          (body): Sequential(
            (0): Conv2d(64, 64, kernel_size=(3, 3), stride=(1, 1), padding=(1, 1))
            (1): ReLU(inplace)
            (2): Conv2d(64, 64, kernel_size=(3, 3), stride=(1, 1), padding=(1, 1))
            (3): CALayer(
              (avg_pool): AdaptiveAvgPool2d(output_size=1)
              (conv_du): Sequential(
                (0): Conv2d(64, 4, kernel_size=(1, 1), stride=(1, 1))
                (1): ReLU(inplace)
                (2): Conv2d(4, 64, kernel_size=(1, 1), stride=(1, 1))
                (3): Sigmoid()
              )
            )
          )
        )
        (10): RCAB(
          (body): Sequential(
            (0): Conv2d(64, 64, kernel_size=(3, 3), stride=(1, 1), padding=(1, 1))
            (1): ReLU(inplace)
            (2): Conv2d(64, 64, kernel_size=(3, 3), stride=(1, 1), padding=(1, 1))
            (3): CALayer(
              (avg_pool): AdaptiveAvgPool2d(output_size=1)
              (conv_du): Sequential(
                (0): Conv2d(64, 4, kernel_size=(1, 1), stride=(1, 1))
                (1): ReLU(inplace)
                (2): Conv2d(4, 64, kernel_size=(1, 1), stride=(1, 1))
                (3): Sigmoid()
              )
            )
          )
        )
        (11): RCAB(
          (body): Sequential(
            (0): Conv2d(64, 64, kernel_size=(3, 3), stride=(1, 1), padding=(1, 1))
            (1): ReLU(inplace)
            (2): Conv2d(64, 64, kernel_size=(3, 3), stride=(1, 1), padding=(1, 1))
            (3): CALayer(
              (avg_pool): AdaptiveAvgPool2d(output_size=1)
              (conv_du): Sequential(
                (0): Conv2d(64, 4, kernel_size=(1, 1), stride=(1, 1))
                (1): ReLU(inplace)
                (2): Conv2d(4, 64, kernel_size=(1, 1), stride=(1, 1))
                (3): Sigmoid()
              )
            )
          )
        )
        (12): RCAB(
          (body): Sequential(
            (0): Conv2d(64, 64, kernel_size=(3, 3), stride=(1, 1), padding=(1, 1))
            (1): ReLU(inplace)
            (2): Conv2d(64, 64, kernel_size=(3, 3), stride=(1, 1), padding=(1, 1))
            (3): CALayer(
              (avg_pool): AdaptiveAvgPool2d(output_size=1)
              (conv_du): Sequential(
                (0): Conv2d(64, 4, kernel_size=(1, 1), stride=(1, 1))
                (1): ReLU(inplace)
                (2): Conv2d(4, 64, kernel_size=(1, 1), stride=(1, 1))
                (3): Sigmoid()
              )
            )
          )
        )
        (13): RCAB(
          (body): Sequential(
            (0): Conv2d(64, 64, kernel_size=(3, 3), stride=(1, 1), padding=(1, 1))
            (1): ReLU(inplace)
            (2): Conv2d(64, 64, kernel_size=(3, 3), stride=(1, 1), padding=(1, 1))
            (3): CALayer(
              (avg_pool): AdaptiveAvgPool2d(output_size=1)
              (conv_du): Sequential(
                (0): Conv2d(64, 4, kernel_size=(1, 1), stride=(1, 1))
                (1): ReLU(inplace)
                (2): Conv2d(4, 64, kernel_size=(1, 1), stride=(1, 1))
                (3): Sigmoid()
              )
            )
          )
        )
        (14): RCAB(
          (body): Sequential(
            (0): Conv2d(64, 64, kernel_size=(3, 3), stride=(1, 1), padding=(1, 1))
            (1): ReLU(inplace)
            (2): Conv2d(64, 64, kernel_size=(3, 3), stride=(1, 1), padding=(1, 1))
            (3): CALayer(
              (avg_pool): AdaptiveAvgPool2d(output_size=1)
              (conv_du): Sequential(
                (0): Conv2d(64, 4, kernel_size=(1, 1), stride=(1, 1))
                (1): ReLU(inplace)
                (2): Conv2d(4, 64, kernel_size=(1, 1), stride=(1, 1))
                (3): Sigmoid()
              )
            )
          )
        )
        (15): RCAB(
          (body): Sequential(
            (0): Conv2d(64, 64, kernel_size=(3, 3), stride=(1, 1), padding=(1, 1))
            (1): ReLU(inplace)
            (2): Conv2d(64, 64, kernel_size=(3, 3), stride=(1, 1), padding=(1, 1))
            (3): CALayer(
              (avg_pool): AdaptiveAvgPool2d(output_size=1)
              (conv_du): Sequential(
                (0): Conv2d(64, 4, kernel_size=(1, 1), stride=(1, 1))
                (1): ReLU(inplace)
                (2): Conv2d(4, 64, kernel_size=(1, 1), stride=(1, 1))
                (3): Sigmoid()
              )
            )
          )
        )
        (16): Conv2d(64, 64, kernel_size=(3, 3), stride=(1, 1), padding=(1, 1))
      )
    )
    (6): ResidualGroup(
      (body): Sequential(
        (0): RCAB(
          (body): Sequential(
            (0): Conv2d(64, 64, kernel_size=(3, 3), stride=(1, 1), padding=(1, 1))
            (1): ReLU(inplace)
            (2): Conv2d(64, 64, kernel_size=(3, 3), stride=(1, 1), padding=(1, 1))
            (3): CALayer(
              (avg_pool): AdaptiveAvgPool2d(output_size=1)
              (conv_du): Sequential(
                (0): Conv2d(64, 4, kernel_size=(1, 1), stride=(1, 1))
                (1): ReLU(inplace)
                (2): Conv2d(4, 64, kernel_size=(1, 1), stride=(1, 1))
                (3): Sigmoid()
              )
            )
          )
        )
        (1): RCAB(
          (body): Sequential(
            (0): Conv2d(64, 64, kernel_size=(3, 3), stride=(1, 1), padding=(1, 1))
            (1): ReLU(inplace)
            (2): Conv2d(64, 64, kernel_size=(3, 3), stride=(1, 1), padding=(1, 1))
            (3): CALayer(
              (avg_pool): AdaptiveAvgPool2d(output_size=1)
              (conv_du): Sequential(
                (0): Conv2d(64, 4, kernel_size=(1, 1), stride=(1, 1))
                (1): ReLU(inplace)
                (2): Conv2d(4, 64, kernel_size=(1, 1), stride=(1, 1))
                (3): Sigmoid()
              )
            )
          )
        )
        (2): RCAB(
          (body): Sequential(
            (0): Conv2d(64, 64, kernel_size=(3, 3), stride=(1, 1), padding=(1, 1))
            (1): ReLU(inplace)
            (2): Conv2d(64, 64, kernel_size=(3, 3), stride=(1, 1), padding=(1, 1))
            (3): CALayer(
              (avg_pool): AdaptiveAvgPool2d(output_size=1)
              (conv_du): Sequential(
                (0): Conv2d(64, 4, kernel_size=(1, 1), stride=(1, 1))
                (1): ReLU(inplace)
                (2): Conv2d(4, 64, kernel_size=(1, 1), stride=(1, 1))
                (3): Sigmoid()
              )
            )
          )
        )
        (3): RCAB(
          (body): Sequential(
            (0): Conv2d(64, 64, kernel_size=(3, 3), stride=(1, 1), padding=(1, 1))
            (1): ReLU(inplace)
            (2): Conv2d(64, 64, kernel_size=(3, 3), stride=(1, 1), padding=(1, 1))
            (3): CALayer(
              (avg_pool): AdaptiveAvgPool2d(output_size=1)
              (conv_du): Sequential(
                (0): Conv2d(64, 4, kernel_size=(1, 1), stride=(1, 1))
                (1): ReLU(inplace)
                (2): Conv2d(4, 64, kernel_size=(1, 1), stride=(1, 1))
                (3): Sigmoid()
              )
            )
          )
        )
        (4): RCAB(
          (body): Sequential(
            (0): Conv2d(64, 64, kernel_size=(3, 3), stride=(1, 1), padding=(1, 1))
            (1): ReLU(inplace)
            (2): Conv2d(64, 64, kernel_size=(3, 3), stride=(1, 1), padding=(1, 1))
            (3): CALayer(
              (avg_pool): AdaptiveAvgPool2d(output_size=1)
              (conv_du): Sequential(
                (0): Conv2d(64, 4, kernel_size=(1, 1), stride=(1, 1))
                (1): ReLU(inplace)
                (2): Conv2d(4, 64, kernel_size=(1, 1), stride=(1, 1))
                (3): Sigmoid()
              )
            )
          )
        )
        (5): RCAB(
          (body): Sequential(
            (0): Conv2d(64, 64, kernel_size=(3, 3), stride=(1, 1), padding=(1, 1))
            (1): ReLU(inplace)
            (2): Conv2d(64, 64, kernel_size=(3, 3), stride=(1, 1), padding=(1, 1))
            (3): CALayer(
              (avg_pool): AdaptiveAvgPool2d(output_size=1)
              (conv_du): Sequential(
                (0): Conv2d(64, 4, kernel_size=(1, 1), stride=(1, 1))
                (1): ReLU(inplace)
                (2): Conv2d(4, 64, kernel_size=(1, 1), stride=(1, 1))
                (3): Sigmoid()
              )
            )
          )
        )
        (6): RCAB(
          (body): Sequential(
            (0): Conv2d(64, 64, kernel_size=(3, 3), stride=(1, 1), padding=(1, 1))
            (1): ReLU(inplace)
            (2): Conv2d(64, 64, kernel_size=(3, 3), stride=(1, 1), padding=(1, 1))
            (3): CALayer(
              (avg_pool): AdaptiveAvgPool2d(output_size=1)
              (conv_du): Sequential(
                (0): Conv2d(64, 4, kernel_size=(1, 1), stride=(1, 1))
                (1): ReLU(inplace)
                (2): Conv2d(4, 64, kernel_size=(1, 1), stride=(1, 1))
                (3): Sigmoid()
              )
            )
          )
        )
        (7): RCAB(
          (body): Sequential(
            (0): Conv2d(64, 64, kernel_size=(3, 3), stride=(1, 1), padding=(1, 1))
            (1): ReLU(inplace)
            (2): Conv2d(64, 64, kernel_size=(3, 3), stride=(1, 1), padding=(1, 1))
            (3): CALayer(
              (avg_pool): AdaptiveAvgPool2d(output_size=1)
              (conv_du): Sequential(
                (0): Conv2d(64, 4, kernel_size=(1, 1), stride=(1, 1))
                (1): ReLU(inplace)
                (2): Conv2d(4, 64, kernel_size=(1, 1), stride=(1, 1))
                (3): Sigmoid()
              )
            )
          )
        )
        (8): RCAB(
          (body): Sequential(
            (0): Conv2d(64, 64, kernel_size=(3, 3), stride=(1, 1), padding=(1, 1))
            (1): ReLU(inplace)
            (2): Conv2d(64, 64, kernel_size=(3, 3), stride=(1, 1), padding=(1, 1))
            (3): CALayer(
              (avg_pool): AdaptiveAvgPool2d(output_size=1)
              (conv_du): Sequential(
                (0): Conv2d(64, 4, kernel_size=(1, 1), stride=(1, 1))
                (1): ReLU(inplace)
                (2): Conv2d(4, 64, kernel_size=(1, 1), stride=(1, 1))
                (3): Sigmoid()
              )
            )
          )
        )
        (9): RCAB(
          (body): Sequential(
            (0): Conv2d(64, 64, kernel_size=(3, 3), stride=(1, 1), padding=(1, 1))
            (1): ReLU(inplace)
            (2): Conv2d(64, 64, kernel_size=(3, 3), stride=(1, 1), padding=(1, 1))
            (3): CALayer(
              (avg_pool): AdaptiveAvgPool2d(output_size=1)
              (conv_du): Sequential(
                (0): Conv2d(64, 4, kernel_size=(1, 1), stride=(1, 1))
                (1): ReLU(inplace)
                (2): Conv2d(4, 64, kernel_size=(1, 1), stride=(1, 1))
                (3): Sigmoid()
              )
            )
          )
        )
        (10): RCAB(
          (body): Sequential(
            (0): Conv2d(64, 64, kernel_size=(3, 3), stride=(1, 1), padding=(1, 1))
            (1): ReLU(inplace)
            (2): Conv2d(64, 64, kernel_size=(3, 3), stride=(1, 1), padding=(1, 1))
            (3): CALayer(
              (avg_pool): AdaptiveAvgPool2d(output_size=1)
              (conv_du): Sequential(
                (0): Conv2d(64, 4, kernel_size=(1, 1), stride=(1, 1))
                (1): ReLU(inplace)
                (2): Conv2d(4, 64, kernel_size=(1, 1), stride=(1, 1))
                (3): Sigmoid()
              )
            )
          )
        )
        (11): RCAB(
          (body): Sequential(
            (0): Conv2d(64, 64, kernel_size=(3, 3), stride=(1, 1), padding=(1, 1))
            (1): ReLU(inplace)
            (2): Conv2d(64, 64, kernel_size=(3, 3), stride=(1, 1), padding=(1, 1))
            (3): CALayer(
              (avg_pool): AdaptiveAvgPool2d(output_size=1)
              (conv_du): Sequential(
                (0): Conv2d(64, 4, kernel_size=(1, 1), stride=(1, 1))
                (1): ReLU(inplace)
                (2): Conv2d(4, 64, kernel_size=(1, 1), stride=(1, 1))
                (3): Sigmoid()
              )
            )
          )
        )
        (12): RCAB(
          (body): Sequential(
            (0): Conv2d(64, 64, kernel_size=(3, 3), stride=(1, 1), padding=(1, 1))
            (1): ReLU(inplace)
            (2): Conv2d(64, 64, kernel_size=(3, 3), stride=(1, 1), padding=(1, 1))
            (3): CALayer(
              (avg_pool): AdaptiveAvgPool2d(output_size=1)
              (conv_du): Sequential(
                (0): Conv2d(64, 4, kernel_size=(1, 1), stride=(1, 1))
                (1): ReLU(inplace)
                (2): Conv2d(4, 64, kernel_size=(1, 1), stride=(1, 1))
                (3): Sigmoid()
              )
            )
          )
        )
        (13): RCAB(
          (body): Sequential(
            (0): Conv2d(64, 64, kernel_size=(3, 3), stride=(1, 1), padding=(1, 1))
            (1): ReLU(inplace)
            (2): Conv2d(64, 64, kernel_size=(3, 3), stride=(1, 1), padding=(1, 1))
            (3): CALayer(
              (avg_pool): AdaptiveAvgPool2d(output_size=1)
              (conv_du): Sequential(
                (0): Conv2d(64, 4, kernel_size=(1, 1), stride=(1, 1))
                (1): ReLU(inplace)
                (2): Conv2d(4, 64, kernel_size=(1, 1), stride=(1, 1))
                (3): Sigmoid()
              )
            )
          )
        )
        (14): RCAB(
          (body): Sequential(
            (0): Conv2d(64, 64, kernel_size=(3, 3), stride=(1, 1), padding=(1, 1))
            (1): ReLU(inplace)
            (2): Conv2d(64, 64, kernel_size=(3, 3), stride=(1, 1), padding=(1, 1))
            (3): CALayer(
              (avg_pool): AdaptiveAvgPool2d(output_size=1)
              (conv_du): Sequential(
                (0): Conv2d(64, 4, kernel_size=(1, 1), stride=(1, 1))
                (1): ReLU(inplace)
                (2): Conv2d(4, 64, kernel_size=(1, 1), stride=(1, 1))
                (3): Sigmoid()
              )
            )
          )
        )
        (15): RCAB(
          (body): Sequential(
            (0): Conv2d(64, 64, kernel_size=(3, 3), stride=(1, 1), padding=(1, 1))
            (1): ReLU(inplace)
            (2): Conv2d(64, 64, kernel_size=(3, 3), stride=(1, 1), padding=(1, 1))
            (3): CALayer(
              (avg_pool): AdaptiveAvgPool2d(output_size=1)
              (conv_du): Sequential(
                (0): Conv2d(64, 4, kernel_size=(1, 1), stride=(1, 1))
                (1): ReLU(inplace)
                (2): Conv2d(4, 64, kernel_size=(1, 1), stride=(1, 1))
                (3): Sigmoid()
              )
            )
          )
        )
        (16): Conv2d(64, 64, kernel_size=(3, 3), stride=(1, 1), padding=(1, 1))
      )
    )
    (7): ResidualGroup(
      (body): Sequential(
        (0): RCAB(
          (body): Sequential(
            (0): Conv2d(64, 64, kernel_size=(3, 3), stride=(1, 1), padding=(1, 1))
            (1): ReLU(inplace)
            (2): Conv2d(64, 64, kernel_size=(3, 3), stride=(1, 1), padding=(1, 1))
            (3): CALayer(
              (avg_pool): AdaptiveAvgPool2d(output_size=1)
              (conv_du): Sequential(
                (0): Conv2d(64, 4, kernel_size=(1, 1), stride=(1, 1))
                (1): ReLU(inplace)
                (2): Conv2d(4, 64, kernel_size=(1, 1), stride=(1, 1))
                (3): Sigmoid()
              )
            )
          )
        )
        (1): RCAB(
          (body): Sequential(
            (0): Conv2d(64, 64, kernel_size=(3, 3), stride=(1, 1), padding=(1, 1))
            (1): ReLU(inplace)
            (2): Conv2d(64, 64, kernel_size=(3, 3), stride=(1, 1), padding=(1, 1))
            (3): CALayer(
              (avg_pool): AdaptiveAvgPool2d(output_size=1)
              (conv_du): Sequential(
                (0): Conv2d(64, 4, kernel_size=(1, 1), stride=(1, 1))
                (1): ReLU(inplace)
                (2): Conv2d(4, 64, kernel_size=(1, 1), stride=(1, 1))
                (3): Sigmoid()
              )
            )
          )
        )
        (2): RCAB(
          (body): Sequential(
            (0): Conv2d(64, 64, kernel_size=(3, 3), stride=(1, 1), padding=(1, 1))
            (1): ReLU(inplace)
            (2): Conv2d(64, 64, kernel_size=(3, 3), stride=(1, 1), padding=(1, 1))
            (3): CALayer(
              (avg_pool): AdaptiveAvgPool2d(output_size=1)
              (conv_du): Sequential(
                (0): Conv2d(64, 4, kernel_size=(1, 1), stride=(1, 1))
                (1): ReLU(inplace)
                (2): Conv2d(4, 64, kernel_size=(1, 1), stride=(1, 1))
                (3): Sigmoid()
              )
            )
          )
        )
        (3): RCAB(
          (body): Sequential(
            (0): Conv2d(64, 64, kernel_size=(3, 3), stride=(1, 1), padding=(1, 1))
            (1): ReLU(inplace)
            (2): Conv2d(64, 64, kernel_size=(3, 3), stride=(1, 1), padding=(1, 1))
            (3): CALayer(
              (avg_pool): AdaptiveAvgPool2d(output_size=1)
              (conv_du): Sequential(
                (0): Conv2d(64, 4, kernel_size=(1, 1), stride=(1, 1))
                (1): ReLU(inplace)
                (2): Conv2d(4, 64, kernel_size=(1, 1), stride=(1, 1))
                (3): Sigmoid()
              )
            )
          )
        )
        (4): RCAB(
          (body): Sequential(
            (0): Conv2d(64, 64, kernel_size=(3, 3), stride=(1, 1), padding=(1, 1))
            (1): ReLU(inplace)
            (2): Conv2d(64, 64, kernel_size=(3, 3), stride=(1, 1), padding=(1, 1))
            (3): CALayer(
              (avg_pool): AdaptiveAvgPool2d(output_size=1)
              (conv_du): Sequential(
                (0): Conv2d(64, 4, kernel_size=(1, 1), stride=(1, 1))
                (1): ReLU(inplace)
                (2): Conv2d(4, 64, kernel_size=(1, 1), stride=(1, 1))
                (3): Sigmoid()
              )
            )
          )
        )
        (5): RCAB(
          (body): Sequential(
            (0): Conv2d(64, 64, kernel_size=(3, 3), stride=(1, 1), padding=(1, 1))
            (1): ReLU(inplace)
            (2): Conv2d(64, 64, kernel_size=(3, 3), stride=(1, 1), padding=(1, 1))
            (3): CALayer(
              (avg_pool): AdaptiveAvgPool2d(output_size=1)
              (conv_du): Sequential(
                (0): Conv2d(64, 4, kernel_size=(1, 1), stride=(1, 1))
                (1): ReLU(inplace)
                (2): Conv2d(4, 64, kernel_size=(1, 1), stride=(1, 1))
                (3): Sigmoid()
              )
            )
          )
        )
        (6): RCAB(
          (body): Sequential(
            (0): Conv2d(64, 64, kernel_size=(3, 3), stride=(1, 1), padding=(1, 1))
            (1): ReLU(inplace)
            (2): Conv2d(64, 64, kernel_size=(3, 3), stride=(1, 1), padding=(1, 1))
            (3): CALayer(
              (avg_pool): AdaptiveAvgPool2d(output_size=1)
              (conv_du): Sequential(
                (0): Conv2d(64, 4, kernel_size=(1, 1), stride=(1, 1))
                (1): ReLU(inplace)
                (2): Conv2d(4, 64, kernel_size=(1, 1), stride=(1, 1))
                (3): Sigmoid()
              )
            )
          )
        )
        (7): RCAB(
          (body): Sequential(
            (0): Conv2d(64, 64, kernel_size=(3, 3), stride=(1, 1), padding=(1, 1))
            (1): ReLU(inplace)
            (2): Conv2d(64, 64, kernel_size=(3, 3), stride=(1, 1), padding=(1, 1))
            (3): CALayer(
              (avg_pool): AdaptiveAvgPool2d(output_size=1)
              (conv_du): Sequential(
                (0): Conv2d(64, 4, kernel_size=(1, 1), stride=(1, 1))
                (1): ReLU(inplace)
                (2): Conv2d(4, 64, kernel_size=(1, 1), stride=(1, 1))
                (3): Sigmoid()
              )
            )
          )
        )
        (8): RCAB(
          (body): Sequential(
            (0): Conv2d(64, 64, kernel_size=(3, 3), stride=(1, 1), padding=(1, 1))
            (1): ReLU(inplace)
            (2): Conv2d(64, 64, kernel_size=(3, 3), stride=(1, 1), padding=(1, 1))
            (3): CALayer(
              (avg_pool): AdaptiveAvgPool2d(output_size=1)
              (conv_du): Sequential(
                (0): Conv2d(64, 4, kernel_size=(1, 1), stride=(1, 1))
                (1): ReLU(inplace)
                (2): Conv2d(4, 64, kernel_size=(1, 1), stride=(1, 1))
                (3): Sigmoid()
              )
            )
          )
        )
        (9): RCAB(
          (body): Sequential(
            (0): Conv2d(64, 64, kernel_size=(3, 3), stride=(1, 1), padding=(1, 1))
            (1): ReLU(inplace)
            (2): Conv2d(64, 64, kernel_size=(3, 3), stride=(1, 1), padding=(1, 1))
            (3): CALayer(
              (avg_pool): AdaptiveAvgPool2d(output_size=1)
              (conv_du): Sequential(
                (0): Conv2d(64, 4, kernel_size=(1, 1), stride=(1, 1))
                (1): ReLU(inplace)
                (2): Conv2d(4, 64, kernel_size=(1, 1), stride=(1, 1))
                (3): Sigmoid()
              )
            )
          )
        )
        (10): RCAB(
          (body): Sequential(
            (0): Conv2d(64, 64, kernel_size=(3, 3), stride=(1, 1), padding=(1, 1))
            (1): ReLU(inplace)
            (2): Conv2d(64, 64, kernel_size=(3, 3), stride=(1, 1), padding=(1, 1))
            (3): CALayer(
              (avg_pool): AdaptiveAvgPool2d(output_size=1)
              (conv_du): Sequential(
                (0): Conv2d(64, 4, kernel_size=(1, 1), stride=(1, 1))
                (1): ReLU(inplace)
                (2): Conv2d(4, 64, kernel_size=(1, 1), stride=(1, 1))
                (3): Sigmoid()
              )
            )
          )
        )
        (11): RCAB(
          (body): Sequential(
            (0): Conv2d(64, 64, kernel_size=(3, 3), stride=(1, 1), padding=(1, 1))
            (1): ReLU(inplace)
            (2): Conv2d(64, 64, kernel_size=(3, 3), stride=(1, 1), padding=(1, 1))
            (3): CALayer(
              (avg_pool): AdaptiveAvgPool2d(output_size=1)
              (conv_du): Sequential(
                (0): Conv2d(64, 4, kernel_size=(1, 1), stride=(1, 1))
                (1): ReLU(inplace)
                (2): Conv2d(4, 64, kernel_size=(1, 1), stride=(1, 1))
                (3): Sigmoid()
              )
            )
          )
        )
        (12): RCAB(
          (body): Sequential(
            (0): Conv2d(64, 64, kernel_size=(3, 3), stride=(1, 1), padding=(1, 1))
            (1): ReLU(inplace)
            (2): Conv2d(64, 64, kernel_size=(3, 3), stride=(1, 1), padding=(1, 1))
            (3): CALayer(
              (avg_pool): AdaptiveAvgPool2d(output_size=1)
              (conv_du): Sequential(
                (0): Conv2d(64, 4, kernel_size=(1, 1), stride=(1, 1))
                (1): ReLU(inplace)
                (2): Conv2d(4, 64, kernel_size=(1, 1), stride=(1, 1))
                (3): Sigmoid()
              )
            )
          )
        )
        (13): RCAB(
          (body): Sequential(
            (0): Conv2d(64, 64, kernel_size=(3, 3), stride=(1, 1), padding=(1, 1))
            (1): ReLU(inplace)
            (2): Conv2d(64, 64, kernel_size=(3, 3), stride=(1, 1), padding=(1, 1))
            (3): CALayer(
              (avg_pool): AdaptiveAvgPool2d(output_size=1)
              (conv_du): Sequential(
                (0): Conv2d(64, 4, kernel_size=(1, 1), stride=(1, 1))
                (1): ReLU(inplace)
                (2): Conv2d(4, 64, kernel_size=(1, 1), stride=(1, 1))
                (3): Sigmoid()
              )
            )
          )
        )
        (14): RCAB(
          (body): Sequential(
            (0): Conv2d(64, 64, kernel_size=(3, 3), stride=(1, 1), padding=(1, 1))
            (1): ReLU(inplace)
            (2): Conv2d(64, 64, kernel_size=(3, 3), stride=(1, 1), padding=(1, 1))
            (3): CALayer(
              (avg_pool): AdaptiveAvgPool2d(output_size=1)
              (conv_du): Sequential(
                (0): Conv2d(64, 4, kernel_size=(1, 1), stride=(1, 1))
                (1): ReLU(inplace)
                (2): Conv2d(4, 64, kernel_size=(1, 1), stride=(1, 1))
                (3): Sigmoid()
              )
            )
          )
        )
        (15): RCAB(
          (body): Sequential(
            (0): Conv2d(64, 64, kernel_size=(3, 3), stride=(1, 1), padding=(1, 1))
            (1): ReLU(inplace)
            (2): Conv2d(64, 64, kernel_size=(3, 3), stride=(1, 1), padding=(1, 1))
            (3): CALayer(
              (avg_pool): AdaptiveAvgPool2d(output_size=1)
              (conv_du): Sequential(
                (0): Conv2d(64, 4, kernel_size=(1, 1), stride=(1, 1))
                (1): ReLU(inplace)
                (2): Conv2d(4, 64, kernel_size=(1, 1), stride=(1, 1))
                (3): Sigmoid()
              )
            )
          )
        )
        (16): Conv2d(64, 64, kernel_size=(3, 3), stride=(1, 1), padding=(1, 1))
      )
    )
    (8): ResidualGroup(
      (body): Sequential(
        (0): RCAB(
          (body): Sequential(
            (0): Conv2d(64, 64, kernel_size=(3, 3), stride=(1, 1), padding=(1, 1))
            (1): ReLU(inplace)
            (2): Conv2d(64, 64, kernel_size=(3, 3), stride=(1, 1), padding=(1, 1))
            (3): CALayer(
              (avg_pool): AdaptiveAvgPool2d(output_size=1)
              (conv_du): Sequential(
                (0): Conv2d(64, 4, kernel_size=(1, 1), stride=(1, 1))
                (1): ReLU(inplace)
                (2): Conv2d(4, 64, kernel_size=(1, 1), stride=(1, 1))
                (3): Sigmoid()
              )
            )
          )
        )
        (1): RCAB(
          (body): Sequential(
            (0): Conv2d(64, 64, kernel_size=(3, 3), stride=(1, 1), padding=(1, 1))
            (1): ReLU(inplace)
            (2): Conv2d(64, 64, kernel_size=(3, 3), stride=(1, 1), padding=(1, 1))
            (3): CALayer(
              (avg_pool): AdaptiveAvgPool2d(output_size=1)
              (conv_du): Sequential(
                (0): Conv2d(64, 4, kernel_size=(1, 1), stride=(1, 1))
                (1): ReLU(inplace)
                (2): Conv2d(4, 64, kernel_size=(1, 1), stride=(1, 1))
                (3): Sigmoid()
              )
            )
          )
        )
        (2): RCAB(
          (body): Sequential(
            (0): Conv2d(64, 64, kernel_size=(3, 3), stride=(1, 1), padding=(1, 1))
            (1): ReLU(inplace)
            (2): Conv2d(64, 64, kernel_size=(3, 3), stride=(1, 1), padding=(1, 1))
            (3): CALayer(
              (avg_pool): AdaptiveAvgPool2d(output_size=1)
              (conv_du): Sequential(
                (0): Conv2d(64, 4, kernel_size=(1, 1), stride=(1, 1))
                (1): ReLU(inplace)
                (2): Conv2d(4, 64, kernel_size=(1, 1), stride=(1, 1))
                (3): Sigmoid()
              )
            )
          )
        )
        (3): RCAB(
          (body): Sequential(
            (0): Conv2d(64, 64, kernel_size=(3, 3), stride=(1, 1), padding=(1, 1))
            (1): ReLU(inplace)
            (2): Conv2d(64, 64, kernel_size=(3, 3), stride=(1, 1), padding=(1, 1))
            (3): CALayer(
              (avg_pool): AdaptiveAvgPool2d(output_size=1)
              (conv_du): Sequential(
                (0): Conv2d(64, 4, kernel_size=(1, 1), stride=(1, 1))
                (1): ReLU(inplace)
                (2): Conv2d(4, 64, kernel_size=(1, 1), stride=(1, 1))
                (3): Sigmoid()
              )
            )
          )
        )
        (4): RCAB(
          (body): Sequential(
            (0): Conv2d(64, 64, kernel_size=(3, 3), stride=(1, 1), padding=(1, 1))
            (1): ReLU(inplace)
            (2): Conv2d(64, 64, kernel_size=(3, 3), stride=(1, 1), padding=(1, 1))
            (3): CALayer(
              (avg_pool): AdaptiveAvgPool2d(output_size=1)
              (conv_du): Sequential(
                (0): Conv2d(64, 4, kernel_size=(1, 1), stride=(1, 1))
                (1): ReLU(inplace)
                (2): Conv2d(4, 64, kernel_size=(1, 1), stride=(1, 1))
                (3): Sigmoid()
              )
            )
          )
        )
        (5): RCAB(
          (body): Sequential(
            (0): Conv2d(64, 64, kernel_size=(3, 3), stride=(1, 1), padding=(1, 1))
            (1): ReLU(inplace)
            (2): Conv2d(64, 64, kernel_size=(3, 3), stride=(1, 1), padding=(1, 1))
            (3): CALayer(
              (avg_pool): AdaptiveAvgPool2d(output_size=1)
              (conv_du): Sequential(
                (0): Conv2d(64, 4, kernel_size=(1, 1), stride=(1, 1))
                (1): ReLU(inplace)
                (2): Conv2d(4, 64, kernel_size=(1, 1), stride=(1, 1))
                (3): Sigmoid()
              )
            )
          )
        )
        (6): RCAB(
          (body): Sequential(
            (0): Conv2d(64, 64, kernel_size=(3, 3), stride=(1, 1), padding=(1, 1))
            (1): ReLU(inplace)
            (2): Conv2d(64, 64, kernel_size=(3, 3), stride=(1, 1), padding=(1, 1))
            (3): CALayer(
              (avg_pool): AdaptiveAvgPool2d(output_size=1)
              (conv_du): Sequential(
                (0): Conv2d(64, 4, kernel_size=(1, 1), stride=(1, 1))
                (1): ReLU(inplace)
                (2): Conv2d(4, 64, kernel_size=(1, 1), stride=(1, 1))
                (3): Sigmoid()
              )
            )
          )
        )
        (7): RCAB(
          (body): Sequential(
            (0): Conv2d(64, 64, kernel_size=(3, 3), stride=(1, 1), padding=(1, 1))
            (1): ReLU(inplace)
            (2): Conv2d(64, 64, kernel_size=(3, 3), stride=(1, 1), padding=(1, 1))
            (3): CALayer(
              (avg_pool): AdaptiveAvgPool2d(output_size=1)
              (conv_du): Sequential(
                (0): Conv2d(64, 4, kernel_size=(1, 1), stride=(1, 1))
                (1): ReLU(inplace)
                (2): Conv2d(4, 64, kernel_size=(1, 1), stride=(1, 1))
                (3): Sigmoid()
              )
            )
          )
        )
        (8): RCAB(
          (body): Sequential(
            (0): Conv2d(64, 64, kernel_size=(3, 3), stride=(1, 1), padding=(1, 1))
            (1): ReLU(inplace)
            (2): Conv2d(64, 64, kernel_size=(3, 3), stride=(1, 1), padding=(1, 1))
            (3): CALayer(
              (avg_pool): AdaptiveAvgPool2d(output_size=1)
              (conv_du): Sequential(
                (0): Conv2d(64, 4, kernel_size=(1, 1), stride=(1, 1))
                (1): ReLU(inplace)
                (2): Conv2d(4, 64, kernel_size=(1, 1), stride=(1, 1))
                (3): Sigmoid()
              )
            )
          )
        )
        (9): RCAB(
          (body): Sequential(
            (0): Conv2d(64, 64, kernel_size=(3, 3), stride=(1, 1), padding=(1, 1))
            (1): ReLU(inplace)
            (2): Conv2d(64, 64, kernel_size=(3, 3), stride=(1, 1), padding=(1, 1))
            (3): CALayer(
              (avg_pool): AdaptiveAvgPool2d(output_size=1)
              (conv_du): Sequential(
                (0): Conv2d(64, 4, kernel_size=(1, 1), stride=(1, 1))
                (1): ReLU(inplace)
                (2): Conv2d(4, 64, kernel_size=(1, 1), stride=(1, 1))
                (3): Sigmoid()
              )
            )
          )
        )
        (10): RCAB(
          (body): Sequential(
            (0): Conv2d(64, 64, kernel_size=(3, 3), stride=(1, 1), padding=(1, 1))
            (1): ReLU(inplace)
            (2): Conv2d(64, 64, kernel_size=(3, 3), stride=(1, 1), padding=(1, 1))
            (3): CALayer(
              (avg_pool): AdaptiveAvgPool2d(output_size=1)
              (conv_du): Sequential(
                (0): Conv2d(64, 4, kernel_size=(1, 1), stride=(1, 1))
                (1): ReLU(inplace)
                (2): Conv2d(4, 64, kernel_size=(1, 1), stride=(1, 1))
                (3): Sigmoid()
              )
            )
          )
        )
        (11): RCAB(
          (body): Sequential(
            (0): Conv2d(64, 64, kernel_size=(3, 3), stride=(1, 1), padding=(1, 1))
            (1): ReLU(inplace)
            (2): Conv2d(64, 64, kernel_size=(3, 3), stride=(1, 1), padding=(1, 1))
            (3): CALayer(
              (avg_pool): AdaptiveAvgPool2d(output_size=1)
              (conv_du): Sequential(
                (0): Conv2d(64, 4, kernel_size=(1, 1), stride=(1, 1))
                (1): ReLU(inplace)
                (2): Conv2d(4, 64, kernel_size=(1, 1), stride=(1, 1))
                (3): Sigmoid()
              )
            )
          )
        )
        (12): RCAB(
          (body): Sequential(
            (0): Conv2d(64, 64, kernel_size=(3, 3), stride=(1, 1), padding=(1, 1))
            (1): ReLU(inplace)
            (2): Conv2d(64, 64, kernel_size=(3, 3), stride=(1, 1), padding=(1, 1))
            (3): CALayer(
              (avg_pool): AdaptiveAvgPool2d(output_size=1)
              (conv_du): Sequential(
                (0): Conv2d(64, 4, kernel_size=(1, 1), stride=(1, 1))
                (1): ReLU(inplace)
                (2): Conv2d(4, 64, kernel_size=(1, 1), stride=(1, 1))
                (3): Sigmoid()
              )
            )
          )
        )
        (13): RCAB(
          (body): Sequential(
            (0): Conv2d(64, 64, kernel_size=(3, 3), stride=(1, 1), padding=(1, 1))
            (1): ReLU(inplace)
            (2): Conv2d(64, 64, kernel_size=(3, 3), stride=(1, 1), padding=(1, 1))
            (3): CALayer(
              (avg_pool): AdaptiveAvgPool2d(output_size=1)
              (conv_du): Sequential(
                (0): Conv2d(64, 4, kernel_size=(1, 1), stride=(1, 1))
                (1): ReLU(inplace)
                (2): Conv2d(4, 64, kernel_size=(1, 1), stride=(1, 1))
                (3): Sigmoid()
              )
            )
          )
        )
        (14): RCAB(
          (body): Sequential(
            (0): Conv2d(64, 64, kernel_size=(3, 3), stride=(1, 1), padding=(1, 1))
            (1): ReLU(inplace)
            (2): Conv2d(64, 64, kernel_size=(3, 3), stride=(1, 1), padding=(1, 1))
            (3): CALayer(
              (avg_pool): AdaptiveAvgPool2d(output_size=1)
              (conv_du): Sequential(
                (0): Conv2d(64, 4, kernel_size=(1, 1), stride=(1, 1))
                (1): ReLU(inplace)
                (2): Conv2d(4, 64, kernel_size=(1, 1), stride=(1, 1))
                (3): Sigmoid()
              )
            )
          )
        )
        (15): RCAB(
          (body): Sequential(
            (0): Conv2d(64, 64, kernel_size=(3, 3), stride=(1, 1), padding=(1, 1))
            (1): ReLU(inplace)
            (2): Conv2d(64, 64, kernel_size=(3, 3), stride=(1, 1), padding=(1, 1))
            (3): CALayer(
              (avg_pool): AdaptiveAvgPool2d(output_size=1)
              (conv_du): Sequential(
                (0): Conv2d(64, 4, kernel_size=(1, 1), stride=(1, 1))
                (1): ReLU(inplace)
                (2): Conv2d(4, 64, kernel_size=(1, 1), stride=(1, 1))
                (3): Sigmoid()
              )
            )
          )
        )
        (16): Conv2d(64, 64, kernel_size=(3, 3), stride=(1, 1), padding=(1, 1))
      )
    )
    (9): ResidualGroup(
      (body): Sequential(
        (0): RCAB(
          (body): Sequential(
            (0): Conv2d(64, 64, kernel_size=(3, 3), stride=(1, 1), padding=(1, 1))
            (1): ReLU(inplace)
            (2): Conv2d(64, 64, kernel_size=(3, 3), stride=(1, 1), padding=(1, 1))
            (3): CALayer(
              (avg_pool): AdaptiveAvgPool2d(output_size=1)
              (conv_du): Sequential(
                (0): Conv2d(64, 4, kernel_size=(1, 1), stride=(1, 1))
                (1): ReLU(inplace)
                (2): Conv2d(4, 64, kernel_size=(1, 1), stride=(1, 1))
                (3): Sigmoid()
              )
            )
          )
        )
        (1): RCAB(
          (body): Sequential(
            (0): Conv2d(64, 64, kernel_size=(3, 3), stride=(1, 1), padding=(1, 1))
            (1): ReLU(inplace)
            (2): Conv2d(64, 64, kernel_size=(3, 3), stride=(1, 1), padding=(1, 1))
            (3): CALayer(
              (avg_pool): AdaptiveAvgPool2d(output_size=1)
              (conv_du): Sequential(
                (0): Conv2d(64, 4, kernel_size=(1, 1), stride=(1, 1))
                (1): ReLU(inplace)
                (2): Conv2d(4, 64, kernel_size=(1, 1), stride=(1, 1))
                (3): Sigmoid()
              )
            )
          )
        )
        (2): RCAB(
          (body): Sequential(
            (0): Conv2d(64, 64, kernel_size=(3, 3), stride=(1, 1), padding=(1, 1))
            (1): ReLU(inplace)
            (2): Conv2d(64, 64, kernel_size=(3, 3), stride=(1, 1), padding=(1, 1))
            (3): CALayer(
              (avg_pool): AdaptiveAvgPool2d(output_size=1)
              (conv_du): Sequential(
                (0): Conv2d(64, 4, kernel_size=(1, 1), stride=(1, 1))
                (1): ReLU(inplace)
                (2): Conv2d(4, 64, kernel_size=(1, 1), stride=(1, 1))
                (3): Sigmoid()
              )
            )
          )
        )
        (3): RCAB(
          (body): Sequential(
            (0): Conv2d(64, 64, kernel_size=(3, 3), stride=(1, 1), padding=(1, 1))
            (1): ReLU(inplace)
            (2): Conv2d(64, 64, kernel_size=(3, 3), stride=(1, 1), padding=(1, 1))
            (3): CALayer(
              (avg_pool): AdaptiveAvgPool2d(output_size=1)
              (conv_du): Sequential(
                (0): Conv2d(64, 4, kernel_size=(1, 1), stride=(1, 1))
                (1): ReLU(inplace)
                (2): Conv2d(4, 64, kernel_size=(1, 1), stride=(1, 1))
                (3): Sigmoid()
              )
            )
          )
        )
        (4): RCAB(
          (body): Sequential(
            (0): Conv2d(64, 64, kernel_size=(3, 3), stride=(1, 1), padding=(1, 1))
            (1): ReLU(inplace)
            (2): Conv2d(64, 64, kernel_size=(3, 3), stride=(1, 1), padding=(1, 1))
            (3): CALayer(
              (avg_pool): AdaptiveAvgPool2d(output_size=1)
              (conv_du): Sequential(
                (0): Conv2d(64, 4, kernel_size=(1, 1), stride=(1, 1))
                (1): ReLU(inplace)
                (2): Conv2d(4, 64, kernel_size=(1, 1), stride=(1, 1))
                (3): Sigmoid()
              )
            )
          )
        )
        (5): RCAB(
          (body): Sequential(
            (0): Conv2d(64, 64, kernel_size=(3, 3), stride=(1, 1), padding=(1, 1))
            (1): ReLU(inplace)
            (2): Conv2d(64, 64, kernel_size=(3, 3), stride=(1, 1), padding=(1, 1))
            (3): CALayer(
              (avg_pool): AdaptiveAvgPool2d(output_size=1)
              (conv_du): Sequential(
                (0): Conv2d(64, 4, kernel_size=(1, 1), stride=(1, 1))
                (1): ReLU(inplace)
                (2): Conv2d(4, 64, kernel_size=(1, 1), stride=(1, 1))
                (3): Sigmoid()
              )
            )
          )
        )
        (6): RCAB(
          (body): Sequential(
            (0): Conv2d(64, 64, kernel_size=(3, 3), stride=(1, 1), padding=(1, 1))
            (1): ReLU(inplace)
            (2): Conv2d(64, 64, kernel_size=(3, 3), stride=(1, 1), padding=(1, 1))
            (3): CALayer(
              (avg_pool): AdaptiveAvgPool2d(output_size=1)
              (conv_du): Sequential(
                (0): Conv2d(64, 4, kernel_size=(1, 1), stride=(1, 1))
                (1): ReLU(inplace)
                (2): Conv2d(4, 64, kernel_size=(1, 1), stride=(1, 1))
                (3): Sigmoid()
              )
            )
          )
        )
        (7): RCAB(
          (body): Sequential(
            (0): Conv2d(64, 64, kernel_size=(3, 3), stride=(1, 1), padding=(1, 1))
            (1): ReLU(inplace)
            (2): Conv2d(64, 64, kernel_size=(3, 3), stride=(1, 1), padding=(1, 1))
            (3): CALayer(
              (avg_pool): AdaptiveAvgPool2d(output_size=1)
              (conv_du): Sequential(
                (0): Conv2d(64, 4, kernel_size=(1, 1), stride=(1, 1))
                (1): ReLU(inplace)
                (2): Conv2d(4, 64, kernel_size=(1, 1), stride=(1, 1))
                (3): Sigmoid()
              )
            )
          )
        )
        (8): RCAB(
          (body): Sequential(
            (0): Conv2d(64, 64, kernel_size=(3, 3), stride=(1, 1), padding=(1, 1))
            (1): ReLU(inplace)
            (2): Conv2d(64, 64, kernel_size=(3, 3), stride=(1, 1), padding=(1, 1))
            (3): CALayer(
              (avg_pool): AdaptiveAvgPool2d(output_size=1)
              (conv_du): Sequential(
                (0): Conv2d(64, 4, kernel_size=(1, 1), stride=(1, 1))
                (1): ReLU(inplace)
                (2): Conv2d(4, 64, kernel_size=(1, 1), stride=(1, 1))
                (3): Sigmoid()
              )
            )
          )
        )
        (9): RCAB(
          (body): Sequential(
            (0): Conv2d(64, 64, kernel_size=(3, 3), stride=(1, 1), padding=(1, 1))
            (1): ReLU(inplace)
            (2): Conv2d(64, 64, kernel_size=(3, 3), stride=(1, 1), padding=(1, 1))
            (3): CALayer(
              (avg_pool): AdaptiveAvgPool2d(output_size=1)
              (conv_du): Sequential(
                (0): Conv2d(64, 4, kernel_size=(1, 1), stride=(1, 1))
                (1): ReLU(inplace)
                (2): Conv2d(4, 64, kernel_size=(1, 1), stride=(1, 1))
                (3): Sigmoid()
              )
            )
          )
        )
        (10): RCAB(
          (body): Sequential(
            (0): Conv2d(64, 64, kernel_size=(3, 3), stride=(1, 1), padding=(1, 1))
            (1): ReLU(inplace)
            (2): Conv2d(64, 64, kernel_size=(3, 3), stride=(1, 1), padding=(1, 1))
            (3): CALayer(
              (avg_pool): AdaptiveAvgPool2d(output_size=1)
              (conv_du): Sequential(
                (0): Conv2d(64, 4, kernel_size=(1, 1), stride=(1, 1))
                (1): ReLU(inplace)
                (2): Conv2d(4, 64, kernel_size=(1, 1), stride=(1, 1))
                (3): Sigmoid()
              )
            )
          )
        )
        (11): RCAB(
          (body): Sequential(
            (0): Conv2d(64, 64, kernel_size=(3, 3), stride=(1, 1), padding=(1, 1))
            (1): ReLU(inplace)
            (2): Conv2d(64, 64, kernel_size=(3, 3), stride=(1, 1), padding=(1, 1))
            (3): CALayer(
              (avg_pool): AdaptiveAvgPool2d(output_size=1)
              (conv_du): Sequential(
                (0): Conv2d(64, 4, kernel_size=(1, 1), stride=(1, 1))
                (1): ReLU(inplace)
                (2): Conv2d(4, 64, kernel_size=(1, 1), stride=(1, 1))
                (3): Sigmoid()
              )
            )
          )
        )
        (12): RCAB(
          (body): Sequential(
            (0): Conv2d(64, 64, kernel_size=(3, 3), stride=(1, 1), padding=(1, 1))
            (1): ReLU(inplace)
            (2): Conv2d(64, 64, kernel_size=(3, 3), stride=(1, 1), padding=(1, 1))
            (3): CALayer(
              (avg_pool): AdaptiveAvgPool2d(output_size=1)
              (conv_du): Sequential(
                (0): Conv2d(64, 4, kernel_size=(1, 1), stride=(1, 1))
                (1): ReLU(inplace)
                (2): Conv2d(4, 64, kernel_size=(1, 1), stride=(1, 1))
                (3): Sigmoid()
              )
            )
          )
        )
        (13): RCAB(
          (body): Sequential(
            (0): Conv2d(64, 64, kernel_size=(3, 3), stride=(1, 1), padding=(1, 1))
            (1): ReLU(inplace)
            (2): Conv2d(64, 64, kernel_size=(3, 3), stride=(1, 1), padding=(1, 1))
            (3): CALayer(
              (avg_pool): AdaptiveAvgPool2d(output_size=1)
              (conv_du): Sequential(
                (0): Conv2d(64, 4, kernel_size=(1, 1), stride=(1, 1))
                (1): ReLU(inplace)
                (2): Conv2d(4, 64, kernel_size=(1, 1), stride=(1, 1))
                (3): Sigmoid()
              )
            )
          )
        )
        (14): RCAB(
          (body): Sequential(
            (0): Conv2d(64, 64, kernel_size=(3, 3), stride=(1, 1), padding=(1, 1))
            (1): ReLU(inplace)
            (2): Conv2d(64, 64, kernel_size=(3, 3), stride=(1, 1), padding=(1, 1))
            (3): CALayer(
              (avg_pool): AdaptiveAvgPool2d(output_size=1)
              (conv_du): Sequential(
                (0): Conv2d(64, 4, kernel_size=(1, 1), stride=(1, 1))
                (1): ReLU(inplace)
                (2): Conv2d(4, 64, kernel_size=(1, 1), stride=(1, 1))
                (3): Sigmoid()
              )
            )
          )
        )
        (15): RCAB(
          (body): Sequential(
            (0): Conv2d(64, 64, kernel_size=(3, 3), stride=(1, 1), padding=(1, 1))
            (1): ReLU(inplace)
            (2): Conv2d(64, 64, kernel_size=(3, 3), stride=(1, 1), padding=(1, 1))
            (3): CALayer(
              (avg_pool): AdaptiveAvgPool2d(output_size=1)
              (conv_du): Sequential(
                (0): Conv2d(64, 4, kernel_size=(1, 1), stride=(1, 1))
                (1): ReLU(inplace)
                (2): Conv2d(4, 64, kernel_size=(1, 1), stride=(1, 1))
                (3): Sigmoid()
              )
            )
          )
        )
        (16): Conv2d(64, 64, kernel_size=(3, 3), stride=(1, 1), padding=(1, 1))
      )
    )
    (10): Conv2d(64, 64, kernel_size=(3, 3), stride=(1, 1), padding=(1, 1))
  )
  (P2W): Pos2Weight(
    (meta_block): Sequential(
      (0): Linear(in_features=3, out_features=256, bias=True)
      (1): ReLU(inplace)
      (2): Linear(in_features=256, out_features=1728, bias=True)
    )
  )
)

Evaluation:
[Set5 x1.5]	PSNR: 28.176 SSIM: 0.8387 (Best: 28.176 @epoch 1)
Total time: 54.65s

